\tiny
	\begin{lstlisting}
		DiProDB: BINARY CLASSIFICATION APPROACH
		Data shape: (40000, 601, 15, 1)
		Epochs: 5, Batch size: 500
		Model: "model_10"
		_________________________________________________________________
		Layer (type)                 Output Shape              Param #
		=================================================================
		input_10 (InputLayer)        (None, 601, 15, 1)        0
		_________________________________________________________________
		conv2d_28 (Conv2D)           (None, 599, 1, 32)        1472
		_________________________________________________________________
		max_pooling2d_28 (MaxPooling (None, 299, 1, 32)        0
		_________________________________________________________________
		conv2d_29 (Conv2D)           (None, 297, 1, 64)        6208
		_________________________________________________________________
		max_pooling2d_29 (MaxPooling (None, 148, 1, 64)        0
		_________________________________________________________________
		conv2d_30 (Conv2D)           (None, 146, 1, 128)       24704
		_________________________________________________________________
		max_pooling2d_30 (MaxPooling (None, 48, 1, 128)        0
		_________________________________________________________________
		flatten_10 (Flatten)         (None, 6144)              0
		_________________________________________________________________
		dense_28 (Dense)             (None, 64)                393280
		_________________________________________________________________
		dropout_19 (Dropout)         (None, 64)                0
		_________________________________________________________________
		dense_29 (Dense)             (None, 64)                4160
		_________________________________________________________________
		dropout_20 (Dropout)         (None, 64)                0
		_________________________________________________________________
		dense_30 (Dense)             (None, 1)                 65
		=================================================================
		
	\end{lstlisting}
