Mode: acceptor_data 

_________________________________________________________________
Layer (type)                 Output Shape              Param #   
=================================================================
flatten_1 (Flatten)          (None, 2408)              0         
_________________________________________________________________
dense_1 (Dense)              (None, 602)               1450218   
_________________________________________________________________
dropout_1 (Dropout)          (None, 602)               0         
_________________________________________________________________
dense_2 (Dense)              (None, 80)                48240     
_________________________________________________________________
dropout_2 (Dropout)          (None, 80)                0         
_________________________________________________________________
dense_3 (Dense)              (None, 30)                2430      
_________________________________________________________________
dropout_3 (Dropout)          (None, 30)                0         
_________________________________________________________________
dense_4 (Dense)              (None, 10)                310       
_________________________________________________________________
dense_5 (Dense)              (None, 1)                 11        
=================================================================
Total params: 1,501,209
Trainable params: 1,501,209
Non-trainable params: 0
_________________________________________________________________
Mean: 92.375, Std: 0.2991655060330342

This took 430.05286407470703 seconds.

Mode: donor_data 

_________________________________________________________________
Layer (type)                 Output Shape              Param #   
=================================================================
flatten_11 (Flatten)         (None, 2408)              0         
_________________________________________________________________
dense_51 (Dense)             (None, 602)               1450218   
_________________________________________________________________
dropout_31 (Dropout)         (None, 602)               0         
_________________________________________________________________
dense_52 (Dense)             (None, 80)                48240     
_________________________________________________________________
dropout_32 (Dropout)         (None, 80)                0         
_________________________________________________________________
dense_53 (Dense)             (None, 30)                2430      
_________________________________________________________________
dropout_33 (Dropout)         (None, 30)                0         
_________________________________________________________________
dense_54 (Dense)             (None, 10)                310       
_________________________________________________________________
dense_55 (Dense)             (None, 1)                 11        
=================================================================
Total params: 1,501,209
Trainable params: 1,501,209
Non-trainable params: 0
_________________________________________________________________
Mean: 93.4375, Std: 0.33396294704652135

This took 461.9025399684906 seconds.

Mode: acceptor_data
_________________________________________________________________
Layer (type)                 Output Shape              Param #   
=================================================================
flatten_1 (Flatten)          (None, 2408)              0         
_________________________________________________________________
dense_1 (Dense)              (None, 602)               1450218   
_________________________________________________________________
dropout_1 (Dropout)          (None, 602)               0         
_________________________________________________________________
dense_2 (Dense)              (None, 30)                18090     
_________________________________________________________________
dropout_2 (Dropout)          (None, 30)                0         
_________________________________________________________________
dense_3 (Dense)              (None, 10)                310       
_________________________________________________________________
dropout_3 (Dropout)          (None, 10)                0         
_________________________________________________________________
dense_4 (Dense)              (None, 1)                 11        
=================================================================
Total params: 1,468,629
Trainable params: 1,468,629
Non-trainable params: 0
_________________________________________________________________
Mode: acceptor_data
_________________________________________________________________
Layer (type)                 Output Shape              Param #   
=================================================================
flatten_1 (Flatten)          (None, 2408)              0         
_________________________________________________________________
dense_1 (Dense)              (None, 602)               1450218   
_________________________________________________________________
dropout_1 (Dropout)          (None, 602)               0         
_________________________________________________________________
dense_2 (Dense)              (None, 30)                18090     
_________________________________________________________________
dropout_2 (Dropout)          (None, 30)                0         
_________________________________________________________________
dense_3 (Dense)              (None, 10)                310       
_________________________________________________________________
dropout_3 (Dropout)          (None, 10)                0         
_________________________________________________________________
dense_4 (Dense)              (None, 1)                 11        
=================================================================
Total params: 1,468,629
Trainable params: 1,468,629
Non-trainable params: 0
_________________________________________________________________
Mean: 92.49, Std: 0.36403983298535175

This took 456.0121717453003 seconds.


-------------------------------------------------------------------------------

Mode: donor_data
_________________________________________________________________
Layer (type)                 Output Shape              Param #   
=================================================================
flatten_11 (Flatten)         (None, 2408)              0         
_________________________________________________________________
dense_41 (Dense)             (None, 602)               1450218   
_________________________________________________________________
dropout_31 (Dropout)         (None, 602)               0         
_________________________________________________________________
dense_42 (Dense)             (None, 30)                18090     
_________________________________________________________________
dropout_32 (Dropout)         (None, 30)                0         
_________________________________________________________________
dense_43 (Dense)             (None, 10)                310       
_________________________________________________________________
dropout_33 (Dropout)         (None, 10)                0         
_________________________________________________________________
dense_44 (Dense)             (None, 1)                 11        
=================================================================
Total params: 1,468,629
Trainable params: 1,468,629
Non-trainable params: 0
_________________________________________________________________
Mean: 93.87, Std: 0.3289756829919194

This took 444.0188989639282 seconds.


-------------------------------------------------------------------------------

Mode: acceptor_data
_________________________________________________________________
Layer (type)                 Output Shape              Param #   
=================================================================
flatten_1 (Flatten)          (None, 2408)              0         
_________________________________________________________________
dense_1 (Dense)              (None, 30)                72270     
_________________________________________________________________
dropout_1 (Dropout)          (None, 30)                0         
_________________________________________________________________
dense_2 (Dense)              (None, 1)                 31        
=================================================================
Total params: 72,301
Trainable params: 72,301
Non-trainable params: 0
_________________________________________________________________
Mean: 92.29249999999999, Std: 0.33875691874853253

This took 82.7702283859253 seconds.


-------------------------------------------------------------------------------

Mode: donor_data
_________________________________________________________________
Layer (type)                 Output Shape              Param #   
=================================================================
flatten_11 (Flatten)         (None, 2408)              0         
_________________________________________________________________
dense_21 (Dense)             (None, 30)                72270     
_________________________________________________________________
dropout_11 (Dropout)         (None, 30)                0         
_________________________________________________________________
dense_22 (Dense)             (None, 1)                 31        
=================================================================
Total params: 72,301
Trainable params: 72,301
Non-trainable params: 0
_________________________________________________________________
Mean: 93.50750000000001, Std: 0.3138570534494943

This took 89.22348165512085 seconds.


-------------------------------------------------------------------------------

Mode: acceptor_data
_________________________________________________________________
Layer (type)                 Output Shape              Param #   
=================================================================
flatten_1 (Flatten)          (None, 2408)              0         
_________________________________________________________________
dropout_1 (Dropout)          (None, 2408)              0         
_________________________________________________________________
dense_1 (Dense)              (None, 1)                 2409      
=================================================================
Total params: 2,409
Trainable params: 2,409
Non-trainable params: 0
_________________________________________________________________
Mean: 62.2375, Std: 5.57239008415599

This took 121.80293607711792 seconds.


-------------------------------------------------------------------------------

Mode: donor_data
_________________________________________________________________
Layer (type)                 Output Shape              Param #   
=================================================================
flatten_11 (Flatten)         (None, 2408)              0         
_________________________________________________________________
dropout_11 (Dropout)         (None, 2408)              0         
_________________________________________________________________
dense_11 (Dense)             (None, 1)                 2409      
=================================================================
Total params: 2,409
Trainable params: 2,409
Non-trainable params: 0
_________________________________________________________________
Mean: 63.15, Std: 2.509357487485591

This took 117.81155848503113 seconds.


-------------------------------------------------------------------------------

Mode: both_data
_________________________________________________________________
Layer (type)                 Output Shape              Param #   
=================================================================
flatten_1 (Flatten)          (None, 2408)              0         
_________________________________________________________________
dense_1 (Dense)              (None, 602)               1450218   
_________________________________________________________________
dropout_1 (Dropout)          (None, 602)               0         
_________________________________________________________________
dense_2 (Dense)              (None, 30)                18090     
_________________________________________________________________
dropout_2 (Dropout)          (None, 30)                0         
_________________________________________________________________
dense_3 (Dense)              (None, 10)                310       
_________________________________________________________________
dropout_3 (Dropout)          (None, 10)                0         
_________________________________________________________________
dense_4 (Dense)              (None, 1)                 11        
=================================================================
Total params: 1,468,629
Trainable params: 1,468,629
Non-trainable params: 0
_________________________________________________________________
Mode: acceptor_data
_________________________________________________________________
Layer (type)                 Output Shape              Param #   
=================================================================
flatten_1 (Flatten)          (None, 2408)              0         
_________________________________________________________________
dense_1 (Dense)              (None, 80)                192720    
_________________________________________________________________
dropout_1 (Dropout)          (None, 80)                0         
_________________________________________________________________
dense_2 (Dense)              (None, 30)                2430      
_________________________________________________________________
dropout_2 (Dropout)          (None, 30)                0         
_________________________________________________________________
dense_3 (Dense)              (None, 40)                1240      
_________________________________________________________________
dropout_3 (Dropout)          (None, 40)                0         
_________________________________________________________________
dense_4 (Dense)              (None, 1)                 41        
=================================================================
Total params: 196,431
Trainable params: 196,431
Non-trainable params: 0
_________________________________________________________________
Mean: 92.43750000000001, Std: 0.35412744880904246

This took 131.30148100852966 seconds.


-------------------------------------------------------------------------------

Mode: donor_data
_________________________________________________________________
Layer (type)                 Output Shape              Param #   
=================================================================
flatten_11 (Flatten)         (None, 2408)              0         
_________________________________________________________________
dense_41 (Dense)             (None, 80)                192720    
_________________________________________________________________
dropout_31 (Dropout)         (None, 80)                0         
_________________________________________________________________
dense_42 (Dense)             (None, 30)                2430      
_________________________________________________________________
dropout_32 (Dropout)         (None, 30)                0         
_________________________________________________________________
dense_43 (Dense)             (None, 40)                1240      
_________________________________________________________________
dropout_33 (Dropout)         (None, 40)                0         
_________________________________________________________________
dense_44 (Dense)             (None, 1)                 41        
=================================================================
Total params: 196,431
Trainable params: 196,431
Non-trainable params: 0
_________________________________________________________________
Mean: 93.85, Std: 0.33222733180760583

This took 136.1810441017151 seconds.


-------------------------------------------------------------------------------

Mode: acceptor_data
_________________________________________________________________
Layer (type)                 Output Shape              Param #   
=================================================================
flatten_1 (Flatten)          (None, 2408)              0         
_________________________________________________________________
dense_1 (Dense)              (None, 80)                192720    
_________________________________________________________________
dropout_1 (Dropout)          (None, 80)                0         
_________________________________________________________________
dense_2 (Dense)              (None, 30)                2430      
_________________________________________________________________
dropout_2 (Dropout)          (None, 30)                0         
_________________________________________________________________
dense_3 (Dense)              (None, 1)                 31        
=================================================================
Total params: 195,181
Trainable params: 195,181
Non-trainable params: 0
_________________________________________________________________
Mode: acceptor_data
_________________________________________________________________
Layer (type)                 Output Shape              Param #   
=================================================================
flatten_1 (Flatten)          (None, 2408)              0         
_________________________________________________________________
dense_1 (Dense)              (None, 80)                192720    
_________________________________________________________________
dropout_1 (Dropout)          (None, 80)                0         
_________________________________________________________________
dense_2 (Dense)              (None, 30)                2430      
_________________________________________________________________
dropout_2 (Dropout)          (None, 30)                0         
_________________________________________________________________
dense_3 (Dense)              (None, 1)                 31        
=================================================================
Total params: 195,181
Trainable params: 195,181
Non-trainable params: 0
_________________________________________________________________
Mean: 92.2125, Std: 0.34209830458509966

This took 131.1367380619049 seconds.


-------------------------------------------------------------------------------

Mode: donor_data
_________________________________________________________________
Layer (type)                 Output Shape              Param #   
=================================================================
flatten_11 (Flatten)         (None, 2408)              0         
_________________________________________________________________
dense_31 (Dense)             (None, 80)                192720    
_________________________________________________________________
dropout_21 (Dropout)         (None, 80)                0         
_________________________________________________________________
dense_32 (Dense)             (None, 30)                2430      
_________________________________________________________________
dropout_22 (Dropout)         (None, 30)                0         
_________________________________________________________________
dense_33 (Dense)             (None, 1)                 31        
=================================================================
Total params: 195,181
Trainable params: 195,181
Non-trainable params: 0
_________________________________________________________________
Mean: 93.53, Std: 0.4424081825644721

This took 135.48761248588562 seconds.


-------------------------------------------------------------------------------

Mode: acceptor_data
_________________________________________________________________
Layer (type)                 Output Shape              Param #   
=================================================================
flatten_1 (Flatten)          (None, 2408)              0         
_________________________________________________________________
dense_1 (Dense)              (None, 200)               481800    
_________________________________________________________________
dropout_1 (Dropout)          (None, 200)               0         
_________________________________________________________________
dense_2 (Dense)              (None, 40)                8040      
_________________________________________________________________
dropout_2 (Dropout)          (None, 40)                0         
_________________________________________________________________
dense_3 (Dense)              (None, 1)                 41        
=================================================================
Total params: 489,881
Trainable params: 489,881
Non-trainable params: 0
_________________________________________________________________
Mean: 92.2625, Std: 0.28750000000000137

This took 209.13045144081116 seconds.


-------------------------------------------------------------------------------

Mode: donor_data
_________________________________________________________________
Layer (type)                 Output Shape              Param #   
=================================================================
flatten_11 (Flatten)         (None, 2408)              0         
_________________________________________________________________
dense_31 (Dense)             (None, 200)               481800    
_________________________________________________________________
dropout_21 (Dropout)         (None, 200)               0         
_________________________________________________________________
dense_32 (Dense)             (None, 40)                8040      
_________________________________________________________________
dropout_22 (Dropout)         (None, 40)                0         
_________________________________________________________________
dense_33 (Dense)             (None, 1)                 41        
=================================================================
Total params: 489,881
Trainable params: 489,881
Non-trainable params: 0
_________________________________________________________________
Mean: 93.53, Std: 0.26358110706194315

This took 215.82657289505005 seconds.


-------------------------------------------------------------------------------

