Mode: acceptor_data 

_________________________________________________________________
Layer (type)                 Output Shape              Param #   
=================================================================
flatten_1 (Flatten)          (None, 2408)              0         
_________________________________________________________________
dense_1 (Dense)              (None, 602)               1450218   
_________________________________________________________________
dropout_1 (Dropout)          (None, 602)               0         
_________________________________________________________________
dense_2 (Dense)              (None, 80)                48240     
_________________________________________________________________
dropout_2 (Dropout)          (None, 80)                0         
_________________________________________________________________
dense_3 (Dense)              (None, 30)                2430      
_________________________________________________________________
dropout_3 (Dropout)          (None, 30)                0         
_________________________________________________________________
dense_4 (Dense)              (None, 10)                310       
_________________________________________________________________
dense_5 (Dense)              (None, 1)                 11        
=================================================================
Total params: 1,501,209
Trainable params: 1,501,209
Non-trainable params: 0
_________________________________________________________________
Mean: 92.375, Std: 0.2991655060330342

This took 430.05286407470703 seconds.

Mode: donor_data 

_________________________________________________________________
Layer (type)                 Output Shape              Param #   
=================================================================
flatten_11 (Flatten)         (None, 2408)              0         
_________________________________________________________________
dense_51 (Dense)             (None, 602)               1450218   
_________________________________________________________________
dropout_31 (Dropout)         (None, 602)               0         
_________________________________________________________________
dense_52 (Dense)             (None, 80)                48240     
_________________________________________________________________
dropout_32 (Dropout)         (None, 80)                0         
_________________________________________________________________
dense_53 (Dense)             (None, 30)                2430      
_________________________________________________________________
dropout_33 (Dropout)         (None, 30)                0         
_________________________________________________________________
dense_54 (Dense)             (None, 10)                310       
_________________________________________________________________
dense_55 (Dense)             (None, 1)                 11        
=================================================================
Total params: 1,501,209
Trainable params: 1,501,209
Non-trainable params: 0
_________________________________________________________________
Mean: 93.4375, Std: 0.33396294704652135

This took 461.9025399684906 seconds.

Mode: acceptor_data
_________________________________________________________________
Layer (type)                 Output Shape              Param #   
=================================================================
flatten_1 (Flatten)          (None, 2408)              0         
_________________________________________________________________
dense_1 (Dense)              (None, 602)               1450218   
_________________________________________________________________
dropout_1 (Dropout)          (None, 602)               0         
_________________________________________________________________
dense_2 (Dense)              (None, 30)                18090     
_________________________________________________________________
dropout_2 (Dropout)          (None, 30)                0         
_________________________________________________________________
dense_3 (Dense)              (None, 10)                310       
_________________________________________________________________
dropout_3 (Dropout)          (None, 10)                0         
_________________________________________________________________
dense_4 (Dense)              (None, 1)                 11        
=================================================================
Total params: 1,468,629
Trainable params: 1,468,629
Non-trainable params: 0
_________________________________________________________________
Mode: acceptor_data
_________________________________________________________________
Layer (type)                 Output Shape              Param #   
=================================================================
flatten_1 (Flatten)          (None, 2408)              0         
_________________________________________________________________
dense_1 (Dense)              (None, 602)               1450218   
_________________________________________________________________
dropout_1 (Dropout)          (None, 602)               0         
_________________________________________________________________
dense_2 (Dense)              (None, 30)                18090     
_________________________________________________________________
dropout_2 (Dropout)          (None, 30)                0         
_________________________________________________________________
dense_3 (Dense)              (None, 10)                310       
_________________________________________________________________
dropout_3 (Dropout)          (None, 10)                0         
_________________________________________________________________
dense_4 (Dense)              (None, 1)                 11        
=================================================================
Total params: 1,468,629
Trainable params: 1,468,629
Non-trainable params: 0
_________________________________________________________________
Mean: 92.49, Std: 0.36403983298535175

This took 456.0121717453003 seconds.


-------------------------------------------------------------------------------

Mode: donor_data
_________________________________________________________________
Layer (type)                 Output Shape              Param #   
=================================================================
flatten_11 (Flatten)         (None, 2408)              0         
_________________________________________________________________
dense_41 (Dense)             (None, 602)               1450218   
_________________________________________________________________
dropout_31 (Dropout)         (None, 602)               0         
_________________________________________________________________
dense_42 (Dense)             (None, 30)                18090     
_________________________________________________________________
dropout_32 (Dropout)         (None, 30)                0         
_________________________________________________________________
dense_43 (Dense)             (None, 10)                310       
_________________________________________________________________
dropout_33 (Dropout)         (None, 10)                0         
_________________________________________________________________
dense_44 (Dense)             (None, 1)                 11        
=================================================================
Total params: 1,468,629
Trainable params: 1,468,629
Non-trainable params: 0
_________________________________________________________________
Mean: 93.87, Std: 0.3289756829919194

This took 444.0188989639282 seconds.


-------------------------------------------------------------------------------

Mode: acceptor_data
_________________________________________________________________
Layer (type)                 Output Shape              Param #   
=================================================================
flatten_1 (Flatten)          (None, 2408)              0         
_________________________________________________________________
dense_1 (Dense)              (None, 30)                72270     
_________________________________________________________________
dropout_1 (Dropout)          (None, 30)                0         
_________________________________________________________________
dense_2 (Dense)              (None, 1)                 31        
=================================================================
Total params: 72,301
Trainable params: 72,301
Non-trainable params: 0
_________________________________________________________________
Mean: 92.29249999999999, Std: 0.33875691874853253

This took 82.7702283859253 seconds.


-------------------------------------------------------------------------------

Mode: donor_data
_________________________________________________________________
Layer (type)                 Output Shape              Param #   
=================================================================
flatten_11 (Flatten)         (None, 2408)              0         
_________________________________________________________________
dense_21 (Dense)             (None, 30)                72270     
_________________________________________________________________
dropout_11 (Dropout)         (None, 30)                0         
_________________________________________________________________
dense_22 (Dense)             (None, 1)                 31        
=================================================================
Total params: 72,301
Trainable params: 72,301
Non-trainable params: 0
_________________________________________________________________
Mean: 93.50750000000001, Std: 0.3138570534494943

This took 89.22348165512085 seconds.


-------------------------------------------------------------------------------

Mode: acceptor_data
_________________________________________________________________
Layer (type)                 Output Shape              Param #   
=================================================================
flatten_1 (Flatten)          (None, 2408)              0         
_________________________________________________________________
dropout_1 (Dropout)          (None, 2408)              0         
_________________________________________________________________
dense_1 (Dense)              (None, 1)                 2409      
=================================================================
Total params: 2,409
Trainable params: 2,409
Non-trainable params: 0
_________________________________________________________________
Mean: 62.2375, Std: 5.57239008415599

This took 121.80293607711792 seconds.


-------------------------------------------------------------------------------

Mode: donor_data
_________________________________________________________________
Layer (type)                 Output Shape              Param #   
=================================================================
flatten_11 (Flatten)         (None, 2408)              0         
_________________________________________________________________
dropout_11 (Dropout)         (None, 2408)              0         
_________________________________________________________________
dense_11 (Dense)             (None, 1)                 2409      
=================================================================
Total params: 2,409
Trainable params: 2,409
Non-trainable params: 0
_________________________________________________________________
Mean: 63.15, Std: 2.509357487485591

This took 117.81155848503113 seconds.


-------------------------------------------------------------------------------

_________________________________________________________________
Mode: acceptor_data
_________________________________________________________________
Layer (type)                 Output Shape              Param #   
=================================================================
flatten_1 (Flatten)          (None, 2408)              0         
_________________________________________________________________
dense_1 (Dense)              (None, 80)                192720    
_________________________________________________________________
dropout_1 (Dropout)          (None, 80)                0         
_________________________________________________________________
dense_2 (Dense)              (None, 30)                2430      
_________________________________________________________________
dropout_2 (Dropout)          (None, 30)                0         
_________________________________________________________________
dense_3 (Dense)              (None, 40)                1240      
_________________________________________________________________
dropout_3 (Dropout)          (None, 40)                0         
_________________________________________________________________
dense_4 (Dense)              (None, 1)                 41        
=================================================================
Total params: 196,431
Trainable params: 196,431
Non-trainable params: 0
_________________________________________________________________
Mean: 92.43750000000001, Std: 0.35412744880904246

This took 131.30148100852966 seconds.


-------------------------------------------------------------------------------

Mode: donor_data
_________________________________________________________________
Layer (type)                 Output Shape              Param #   
=================================================================
flatten_11 (Flatten)         (None, 2408)              0         
_________________________________________________________________
dense_41 (Dense)             (None, 80)                192720    
_________________________________________________________________
dropout_31 (Dropout)         (None, 80)                0         
_________________________________________________________________
dense_42 (Dense)             (None, 30)                2430      
_________________________________________________________________
dropout_32 (Dropout)         (None, 30)                0         
_________________________________________________________________
dense_43 (Dense)             (None, 40)                1240      
_________________________________________________________________
dropout_33 (Dropout)         (None, 40)                0         
_________________________________________________________________
dense_44 (Dense)             (None, 1)                 41        
=================================================================
Total params: 196,431
Trainable params: 196,431
Non-trainable params: 0
_________________________________________________________________
Mean: 93.85, Std: 0.33222733180760583

This took 136.1810441017151 seconds.


-------------------------------------------------------------------------------

Mode: acceptor_data
_________________________________________________________________
Layer (type)                 Output Shape              Param #   
=================================================================
flatten_1 (Flatten)          (None, 2408)              0         
_________________________________________________________________
dense_1 (Dense)              (None, 80)                192720    
_________________________________________________________________
dropout_1 (Dropout)          (None, 80)                0         
_________________________________________________________________
dense_2 (Dense)              (None, 30)                2430      
_________________________________________________________________
dropout_2 (Dropout)          (None, 30)                0         
_________________________________________________________________
dense_3 (Dense)              (None, 1)                 31        
=================================================================
Total params: 195,181
Trainable params: 195,181
Non-trainable params: 0
_________________________________________________________________
Mode: acceptor_data
_________________________________________________________________
Layer (type)                 Output Shape              Param #   
=================================================================
flatten_1 (Flatten)          (None, 2408)              0         
_________________________________________________________________
dense_1 (Dense)              (None, 80)                192720    
_________________________________________________________________
dropout_1 (Dropout)          (None, 80)                0         
_________________________________________________________________
dense_2 (Dense)              (None, 30)                2430      
_________________________________________________________________
dropout_2 (Dropout)          (None, 30)                0         
_________________________________________________________________
dense_3 (Dense)              (None, 1)                 31        
=================================================================
Total params: 195,181
Trainable params: 195,181
Non-trainable params: 0
_________________________________________________________________
Mean: 92.2125, Std: 0.34209830458509966

This took 131.1367380619049 seconds.


-------------------------------------------------------------------------------

Mode: donor_data
_________________________________________________________________
Layer (type)                 Output Shape              Param #   
=================================================================
flatten_11 (Flatten)         (None, 2408)              0         
_________________________________________________________________
dense_31 (Dense)             (None, 80)                192720    
_________________________________________________________________
dropout_21 (Dropout)         (None, 80)                0         
_________________________________________________________________
dense_32 (Dense)             (None, 30)                2430      
_________________________________________________________________
dropout_22 (Dropout)         (None, 30)                0         
_________________________________________________________________
dense_33 (Dense)             (None, 1)                 31        
=================================================================
Total params: 195,181
Trainable params: 195,181
Non-trainable params: 0
_________________________________________________________________
Mean: 93.53, Std: 0.4424081825644721

This took 135.48761248588562 seconds.


-------------------------------------------------------------------------------

Mode: acceptor_data
_________________________________________________________________
Layer (type)                 Output Shape              Param #   
=================================================================
flatten_1 (Flatten)          (None, 2408)              0         
_________________________________________________________________
dense_1 (Dense)              (None, 200)               481800    
_________________________________________________________________
dropout_1 (Dropout)          (None, 200)               0         
_________________________________________________________________
dense_2 (Dense)              (None, 40)                8040      
_________________________________________________________________
dropout_2 (Dropout)          (None, 40)                0         
_________________________________________________________________
dense_3 (Dense)              (None, 1)                 41        
=================================================================
Total params: 489,881
Trainable params: 489,881
Non-trainable params: 0
_________________________________________________________________
Mean: 92.2625, Std: 0.28750000000000137

This took 209.13045144081116 seconds.


-------------------------------------------------------------------------------

Mode: donor_data
_________________________________________________________________
Layer (type)                 Output Shape              Param #   
=================================================================
flatten_11 (Flatten)         (None, 2408)              0         
_________________________________________________________________
dense_31 (Dense)             (None, 200)               481800    
_________________________________________________________________
dropout_21 (Dropout)         (None, 200)               0         
_________________________________________________________________
dense_32 (Dense)             (None, 40)                8040      
_________________________________________________________________
dropout_22 (Dropout)         (None, 40)                0         
_________________________________________________________________
dense_33 (Dense)             (None, 1)                 41        
=================================================================
Total params: 489,881
Trainable params: 489,881
Non-trainable params: 0
_________________________________________________________________
Mean: 93.53, Std: 0.26358110706194315

This took 215.82657289505005 seconds.


-------------------------------------------------------------------------------

Mode: acceptor_data_100000
_________________________________________________________________
Layer (type)                 Output Shape              Param #   
=================================================================
flatten_1 (Flatten)          (None, 2408)              0         
_________________________________________________________________
dropout_1 (Dropout)          (None, 2408)              0         
_________________________________________________________________
dense_1 (Dense)              (None, 100)               240900    
_________________________________________________________________
dropout_2 (Dropout)          (None, 100)               0         
_________________________________________________________________
dense_2 (Dense)              (None, 80)                8080      
_________________________________________________________________
dropout_3 (Dropout)          (None, 80)                0         
_________________________________________________________________
dense_3 (Dense)              (None, 30)                2430      
_________________________________________________________________
dropout_4 (Dropout)          (None, 30)                0         
_________________________________________________________________
dense_4 (Dense)              (None, 1)                 31        
=================================================================
Total params: 251,441
Trainable params: 251,441
Non-trainable params: 0
_________________________________________________________________
Mean: 93.342, Std: 0.21185136298829502

This took 852.2322728633881 seconds.


-------------------------------------------------------------------------------

Mode: donor_data_100000
_________________________________________________________________
Layer (type)                 Output Shape              Param #   
=================================================================
flatten_11 (Flatten)         (None, 2408)              0         
_________________________________________________________________
dropout_41 (Dropout)         (None, 2408)              0         
_________________________________________________________________
dense_41 (Dense)             (None, 100)               240900    
_________________________________________________________________
dropout_42 (Dropout)         (None, 100)               0         
_________________________________________________________________
dense_42 (Dense)             (None, 80)                8080      
_________________________________________________________________
dropout_43 (Dropout)         (None, 80)                0         
_________________________________________________________________
dense_43 (Dense)             (None, 30)                2430      
_________________________________________________________________
dropout_44 (Dropout)         (None, 30)                0         
_________________________________________________________________
dense_44 (Dense)             (None, 1)                 31        
=================================================================
Total params: 251,441
Trainable params: 251,441
Non-trainable params: 0
_________________________________________________________________
Mean: 93.336, Std: 0.26580820152884493

This took 961.6309790611267 seconds.


-------------------------------------------------------------------------------

Mode: acceptor_data_100000
_________________________________________________________________
Layer (type)                 Output Shape              Param #   
=================================================================
flatten_1 (Flatten)          (None, 2408)              0         
_________________________________________________________________
dropout_1 (Dropout)          (None, 2408)              0         
_________________________________________________________________
dense_1 (Dense)              (None, 100)               240900    
_________________________________________________________________
dropout_2 (Dropout)          (None, 100)               0         
_________________________________________________________________
dense_2 (Dense)              (None, 80)                8080      
_________________________________________________________________
dropout_3 (Dropout)          (None, 80)                0         
_________________________________________________________________
dense_3 (Dense)              (None, 80)                6480      
_________________________________________________________________
dense_4 (Dense)              (None, 30)                2430      
_________________________________________________________________
dropout_4 (Dropout)          (None, 30)                0         
_________________________________________________________________
dense_5 (Dense)              (None, 1)                 31        
=================================================================
Total params: 257,921
Trainable params: 257,921
Non-trainable params: 0
_________________________________________________________________
Mean: 93.2545, Std: 0.31943270026720955

This took 871.5603241920471 seconds.


-------------------------------------------------------------------------------

Mode: donor_data_100000
_________________________________________________________________
Layer (type)                 Output Shape              Param #   
=================================================================
flatten_11 (Flatten)         (None, 2408)              0         
_________________________________________________________________
dropout_41 (Dropout)         (None, 2408)              0         
_________________________________________________________________
dense_51 (Dense)             (None, 100)               240900    
_________________________________________________________________
dropout_42 (Dropout)         (None, 100)               0         
_________________________________________________________________
dense_52 (Dense)             (None, 80)                8080      
_________________________________________________________________
dropout_43 (Dropout)         (None, 80)                0         
_________________________________________________________________
dense_53 (Dense)             (None, 80)                6480      
_________________________________________________________________
dense_54 (Dense)             (None, 30)                2430      
_________________________________________________________________
dropout_44 (Dropout)         (None, 30)                0         
_________________________________________________________________
dense_55 (Dense)             (None, 1)                 31        
=================================================================
Total params: 257,921
Trainable params: 257,921
Non-trainable params: 0
_________________________________________________________________
Mean: 93.203, Std: 0.2685162937328004

This took 940.4082992076874 seconds.


-------------------------------------------------------------------------------


Mode: acceptor_data
_________________________________________________________________
Layer (type)                 Output Shape              Param #   
=================================================================
flatten_9 (Flatten)          (None, 2408)              0         
_________________________________________________________________
dense_57 (Dense)             (None, 300)               722700    
_________________________________________________________________
dropout_41 (Dropout)         (None, 300)               0         
_________________________________________________________________
dense_58 (Dense)             (None, 80)                24080     
_________________________________________________________________
dropout_42 (Dropout)         (None, 80)                0         
_________________________________________________________________
dense_59 (Dense)             (None, 80)                6480      
_________________________________________________________________
dropout_43 (Dropout)         (None, 80)                0         
_________________________________________________________________
dense_60 (Dense)             (None, 80)                6480      
_________________________________________________________________
dropout_44 (Dropout)         (None, 80)                0         
_________________________________________________________________
dense_61 (Dense)             (None, 80)                6480      
_________________________________________________________________
dense_62 (Dense)             (None, 30)                2430      
_________________________________________________________________
dropout_45 (Dropout)         (None, 30)                0         
_________________________________________________________________
dense_63 (Dense)             (None, 1)                 31        
=================================================================
Total params: 768,681
Trainable params: 768,681
Non-trainable params: 0
_________________________________________________________________
Mean: 92.50000000000001, Std: 0.37533318531672766

This took 331.88215923309326 seconds.


-------------------------------------------------------------------------------

Mode: donor_data
_________________________________________________________________
Layer (type)                 Output Shape              Param #   
=================================================================
flatten_19 (Flatten)         (None, 2408)              0         
_________________________________________________________________
dense_127 (Dense)            (None, 300)               722700    
_________________________________________________________________
dropout_91 (Dropout)         (None, 300)               0         
_________________________________________________________________
dense_128 (Dense)            (None, 80)                24080     
_________________________________________________________________
dropout_92 (Dropout)         (None, 80)                0         
_________________________________________________________________
dense_129 (Dense)            (None, 80)                6480      
_________________________________________________________________
dropout_93 (Dropout)         (None, 80)                0         
_________________________________________________________________
dense_130 (Dense)            (None, 80)                6480      
_________________________________________________________________
dropout_94 (Dropout)         (None, 80)                0         
_________________________________________________________________
dense_131 (Dense)            (None, 80)                6480      
_________________________________________________________________
dense_132 (Dense)            (None, 30)                2430      
_________________________________________________________________
dropout_95 (Dropout)         (None, 30)                0         
_________________________________________________________________
dense_133 (Dense)            (None, 1)                 31        
=================================================================
Total params: 768,681
Trainable params: 768,681
Non-trainable params: 0
_________________________________________________________________
Mean: 93.82000000000001, Std: 0.3836991008589924

This took 413.3204264640808 seconds.


-------------------------------------------------------------------------------

MULTI LABEL APPROACH

Data shape: (80000, 602, 4)
Mode: both_data
_________________________________________________________________
Layer (type)                 Output Shape              Param #   
=================================================================
flatten_9 (Flatten)          (None, 2408)              0         
_________________________________________________________________
dense_41 (Dense)             (None, 300)               722700    
_________________________________________________________________
dropout_25 (Dropout)         (None, 300)               0         
_________________________________________________________________
dense_42 (Dense)             (None, 80)                24080     
_________________________________________________________________
dropout_26 (Dropout)         (None, 80)                0         
_________________________________________________________________
dense_43 (Dense)             (None, 80)                6480      
_________________________________________________________________
dense_44 (Dense)             (None, 30)                2430      
_________________________________________________________________
dropout_27 (Dropout)         (None, 30)                0         
_________________________________________________________________
dense_45 (Dense)             (None, 4)                 124       
=================================================================
Total params: 755,814
Trainable params: 755,814
Non-trainable params: 0
_________________________________________________________________
Mean: 96.6003125, Std: 0.13940757747070187

This took 502.8338601589203 seconds.

Epochs: 10, Batch size: 500

-------------------------------------------------------------------------------

Data shape: (40000, 602, 4)
Mode: acceptor_data
_________________________________________________________________
Layer (type)                 Output Shape              Param #   
=================================================================
flatten_9 (Flatten)          (None, 2408)              0         
_________________________________________________________________
dense_49 (Dense)             (None, 300)               722700    
_________________________________________________________________
dropout_41 (Dropout)         (None, 300)               0         
_________________________________________________________________
dense_50 (Dense)             (None, 80)                24080     
_________________________________________________________________
dropout_42 (Dropout)         (None, 80)                0         
_________________________________________________________________
dense_51 (Dense)             (None, 80)                6480      
_________________________________________________________________
dropout_43 (Dropout)         (None, 80)                0         
_________________________________________________________________
dense_52 (Dense)             (None, 80)                6480      
_________________________________________________________________
dropout_44 (Dropout)         (None, 80)                0         
_________________________________________________________________
dense_53 (Dense)             (None, 30)                2430      
_________________________________________________________________
dropout_45 (Dropout)         (None, 30)                0         
_________________________________________________________________
dense_54 (Dense)             (None, 2)                 62        
=================================================================
Total params: 762,232
Trainable params: 762,232
Non-trainable params: 0
_________________________________________________________________
Mean: 92.4525, Std: 0.22979610527596073

This took 309.57208466529846 seconds.

Epochs: 10, Batch size: 500

-------------------------------------------------------------------------------

Data shape: (40000, 602, 4)
Mode: donor_data
_________________________________________________________________
Layer (type)                 Output Shape              Param #   
=================================================================
flatten_19 (Flatten)         (None, 2408)              0         
_________________________________________________________________
dense_109 (Dense)            (None, 300)               722700    
_________________________________________________________________
dropout_91 (Dropout)         (None, 300)               0         
_________________________________________________________________
dense_110 (Dense)            (None, 80)                24080     
_________________________________________________________________
dropout_92 (Dropout)         (None, 80)                0         
_________________________________________________________________
dense_111 (Dense)            (None, 80)                6480      
_________________________________________________________________
dropout_93 (Dropout)         (None, 80)                0         
_________________________________________________________________
dense_112 (Dense)            (None, 80)                6480      
_________________________________________________________________
dropout_94 (Dropout)         (None, 80)                0         
_________________________________________________________________
dense_113 (Dense)            (None, 30)                2430      
_________________________________________________________________
dropout_95 (Dropout)         (None, 30)                0         
_________________________________________________________________
dense_114 (Dense)            (None, 2)                 62        
=================================================================
Total params: 762,232
Trainable params: 762,232
Non-trainable params: 0
_________________________________________________________________
Mean: 93.86, Std: 0.36898509454989875

This took 310.17128467559814 seconds.

Epochs: 10, Batch size: 500

-------------------------------------------------------------------------------

Data shape: (40000, 602, 4)
Mode: acceptor_data
_________________________________________________________________
Layer (type)                 Output Shape              Param #   
=================================================================
flatten_9 (Flatten)          (None, 2408)              0         
_________________________________________________________________
dropout_65 (Dropout)         (None, 2408)              0         
_________________________________________________________________
dense_65 (Dense)             (None, 300)               722700    
_________________________________________________________________
dropout_66 (Dropout)         (None, 300)               0         
_________________________________________________________________
dense_66 (Dense)             (None, 80)                24080     
_________________________________________________________________
dropout_67 (Dropout)         (None, 80)                0         
_________________________________________________________________
dense_67 (Dense)             (None, 80)                6480      
_________________________________________________________________
dropout_68 (Dropout)         (None, 80)                0         
_________________________________________________________________
dense_68 (Dense)             (None, 60)                4860      
_________________________________________________________________
dropout_69 (Dropout)         (None, 60)                0         
_________________________________________________________________
dense_69 (Dense)             (None, 30)                1830      
_________________________________________________________________
dropout_70 (Dropout)         (None, 30)                0         
_________________________________________________________________
dense_70 (Dense)             (None, 30)                930       
_________________________________________________________________
dropout_71 (Dropout)         (None, 30)                0         
_________________________________________________________________
dense_71 (Dense)             (None, 30)                930       
_________________________________________________________________
dropout_72 (Dropout)         (None, 30)                0         
_________________________________________________________________
dense_72 (Dense)             (None, 2)                 62        
=================================================================
Total params: 761,872
Trainable params: 761,872
Non-trainable params: 0
_________________________________________________________________
Mean: 91.775, Std: 1.2540932979647095

This took 692.1978163719177 seconds.

Epochs: 20, Batch size: 1000

-------------------------------------------------------------------------------

Data shape: (40000, 602, 4)
Mode: acceptor_data
_________________________________________________________________
Layer (type)                 Output Shape              Param #   
=================================================================
flatten_9 (Flatten)          (None, 2408)              0         
_________________________________________________________________
dropout_25 (Dropout)         (None, 2408)              0         
_________________________________________________________________
dense_25 (Dense)             (None, 150)               361350    
_________________________________________________________________
dropout_26 (Dropout)         (None, 150)               0         
_________________________________________________________________
dense_26 (Dense)             (None, 40)                6040      
_________________________________________________________________
dropout_27 (Dropout)         (None, 40)                0         
_________________________________________________________________
dense_27 (Dense)             (None, 2)                 82        
=================================================================
Total params: 367,472
Trainable params: 367,472
Non-trainable params: 0
_________________________________________________________________
Mean: 92.21000000000001, Std: 0.3384154251803548

This took 481.89889311790466 seconds.

Epochs: 10, Batch size: 500

-------------------------------------------------------------------------------

Data shape: (40000, 602, 4)
Mode: donor_data
_________________________________________________________________
Layer (type)                 Output Shape              Param #   
=================================================================
flatten_19 (Flatten)         (None, 2408)              0         
_________________________________________________________________
dropout_145 (Dropout)        (None, 2408)              0         
_________________________________________________________________
dense_145 (Dense)            (None, 300)               722700    
_________________________________________________________________
dropout_146 (Dropout)        (None, 300)               0         
_________________________________________________________________
dense_146 (Dense)            (None, 80)                24080     
_________________________________________________________________
dropout_147 (Dropout)        (None, 80)                0         
_________________________________________________________________
dense_147 (Dense)            (None, 80)                6480      
_________________________________________________________________
dropout_148 (Dropout)        (None, 80)                0         
_________________________________________________________________
dense_148 (Dense)            (None, 60)                4860      
_________________________________________________________________
dropout_149 (Dropout)        (None, 60)                0         
_________________________________________________________________
dense_149 (Dense)            (None, 30)                1830      
_________________________________________________________________
dropout_150 (Dropout)        (None, 30)                0         
_________________________________________________________________
dense_150 (Dense)            (None, 30)                930       
_________________________________________________________________
dropout_151 (Dropout)        (None, 30)                0         
_________________________________________________________________
dense_151 (Dense)            (None, 30)                930       
_________________________________________________________________
dropout_152 (Dropout)        (None, 30)                0         
_________________________________________________________________
dense_152 (Dense)            (None, 2)                 62        
=================================================================
Total params: 761,872
Trainable params: 761,872
Non-trainable params: 0
_________________________________________________________________
Mean: 92.8425, Std: 1.5502439324183772

This took 1046.2308313846588 seconds.

Epochs: 20, Batch size: 1000

-------------------------------------------------------------------------------

Data shape: (40000, 602, 4)
Mode: donor_data
_________________________________________________________________
Layer (type)                 Output Shape              Param #   
=================================================================
flatten_19 (Flatten)         (None, 2408)              0         
_________________________________________________________________
dropout_55 (Dropout)         (None, 2408)              0         
_________________________________________________________________
dense_55 (Dense)             (None, 150)               361350    
_________________________________________________________________
dropout_56 (Dropout)         (None, 150)               0         
_________________________________________________________________
dense_56 (Dense)             (None, 40)                6040      
_________________________________________________________________
dropout_57 (Dropout)         (None, 40)                0         
_________________________________________________________________
dense_57 (Dense)             (None, 2)                 82        
=================================================================
Total params: 367,472
Trainable params: 367,472
Non-trainable params: 0
_________________________________________________________________
Mean: 93.49499999999999, Std: 0.35808518539587486

This took 380.1516888141632 seconds.

Epochs: 10, Batch size: 500

-------------------------------------------------------------------------------
…
-------------------------------------------------------------------------------

NAIVE BAYES APPROACH
Data shape: (40000, 602, 4)
Confusion matrix: [[1597  403]
 [ 365 1635]]
Classified donor_data
Mean: 80.75750000000001, Std: 0.47526966029823386

This took 14.857137441635132 seconds.


-------------------------------------------------------------------------------

MULTI LABEL APPROACH
Data shape: (200000, 602, 4)
_________________________________________________________________
Layer (type)                 Output Shape              Param #   
=================================================================
flatten_10 (Flatten)         (None, 2408)              0         
_________________________________________________________________
dense_19 (Dense)             (None, 30)                72270     
_________________________________________________________________
dropout_10 (Dropout)         (None, 30)                0         
_________________________________________________________________
dense_20 (Dense)             (None, 2)                 62        
=================================================================
Total params: 72,332
Trainable params: 72,332
Non-trainable params: 0
_________________________________________________________________
Confusion matrix: [[9425  575]
 [ 788 9212]]
Classified acceptor_data
Mean: 93.62, Std: 0.33530583054876717

This took 721.513671875 seconds.


-------------------------------------------------------------------------------

MULTI LABEL APPROACH
Data shape: (200000, 602, 4)
_________________________________________________________________
Layer (type)                 Output Shape              Param #   
=================================================================
flatten_20 (Flatten)         (None, 2408)              0         
_________________________________________________________________
dense_39 (Dense)             (None, 30)                72270     
_________________________________________________________________
dropout_20 (Dropout)         (None, 30)                0         
_________________________________________________________________
dense_40 (Dense)             (None, 2)                 62        
=================================================================
Total params: 72,332
Trainable params: 72,332
Non-trainable params: 0
_________________________________________________________________
Confusion matrix: [[9398  602]
 [ 755 9245]]
Classified donor_data
Mean: 93.62300000000002, Std: 0.3143024021543559

This took 675.4842007160187 seconds.


-------------------------------------------------------------------------------

GRADIENT BOOSTING APPROACH
Data shape: (40000, 602, 4)
Confusion matrix: [[1751  249]
 [ 162 1838]]
Classified acceptor_data
Mean: 88.99249999999999, Std: 0.48939375762263354

This took 410.04191279411316 seconds.


-------------------------------------------------------------------------------

BINARY CLASSIFICATION APPROACH
Data shape: (40000, 602, 4)
_________________________________________________________________
Layer (type)                 Output Shape              Param #   
=================================================================
input_10 (InputLayer)        (None, 602, 4)            0         
_________________________________________________________________
dense_28 (Dense)             (None, 602, 100)          500       
_________________________________________________________________
dropout_19 (Dropout)         (None, 602, 100)          0         
_________________________________________________________________
dense_29 (Dense)             (None, 602, 30)           3030      
_________________________________________________________________
dropout_20 (Dropout)         (None, 602, 30)           0         
_________________________________________________________________
flatten_10 (Flatten)         (None, 18060)             0         
_________________________________________________________________
dense_30 (Dense)             (None, 1)                 18061     
=================================================================
Total params: 21,591
Trainable params: 21,591
Non-trainable params: 0
_________________________________________________________________
Confusion matrix: [[1818  182]
 [ 105 1895]]
Classified acceptor_data
Mean: 92.39250000000001, Std: 0.42895949692249746

This took 5002.731471300125 seconds.


-------------------------------------------------------------------------------

BINARY CLASSIFICATION APPROACH
Data shape: (40000, 601, 15)
_________________________________________________________________
Layer (type)                 Output Shape              Param #   
=================================================================
input_10 (InputLayer)        (None, 601, 15)           0         
_________________________________________________________________
flatten_10 (Flatten)         (None, 9015)              0         
_________________________________________________________________
dense_46 (Dense)             (None, 150)               1352400   
_________________________________________________________________
dropout_37 (Dropout)         (None, 150)               0         
_________________________________________________________________
dense_47 (Dense)             (None, 80)                12080     
_________________________________________________________________
dropout_38 (Dropout)         (None, 80)                0         
_________________________________________________________________
dense_48 (Dense)             (None, 30)                2430      
_________________________________________________________________
dropout_39 (Dropout)         (None, 30)                0         
_________________________________________________________________
dense_49 (Dense)             (None, 10)                310       
_________________________________________________________________
dropout_40 (Dropout)         (None, 10)                0         
_________________________________________________________________
dense_50 (Dense)             (None, 1)                 11        
=================================================================
Total params: 1,367,231
Trainable params: 1,367,231
Non-trainable params: 0
_________________________________________________________________
Confusion matrix: [[1808  192]
 [ 111 1889]]
Classified acceptor_data
Mean: 92.28, Std: 0.43023249528597973

This took 639.5810875892639 seconds.


-------------------------------------------------------------------------------

BINARY CLASSIFICATION APPROACH
Data shape: (40000, 601, 15)
_________________________________________________________________
Layer (type)                 Output Shape              Param #   
=================================================================
input_20 (InputLayer)        (None, 601, 15)           0         
_________________________________________________________________
flatten_20 (Flatten)         (None, 9015)              0         
_________________________________________________________________
dense_96 (Dense)             (None, 150)               1352400   
_________________________________________________________________
dropout_77 (Dropout)         (None, 150)               0         
_________________________________________________________________
dense_97 (Dense)             (None, 80)                12080     
_________________________________________________________________
dropout_78 (Dropout)         (None, 80)                0         
_________________________________________________________________
dense_98 (Dense)             (None, 30)                2430      
_________________________________________________________________
dropout_79 (Dropout)         (None, 30)                0         
_________________________________________________________________
dense_99 (Dense)             (None, 10)                310       
_________________________________________________________________
dropout_80 (Dropout)         (None, 10)                0         
_________________________________________________________________
dense_100 (Dense)            (None, 1)                 11        
=================================================================
Total params: 1,367,231
Trainable params: 1,367,231
Non-trainable params: 0
_________________________________________________________________
Confusion matrix: [[1840  160]
 [ 119 1881]]
Classified donor_data
Mean: 93.4025, Std: 0.27304990386374306

This took 660.7177155017853 seconds.


-------------------------------------------------------------------------------

DiProDB: BINARY CLASSIFICATION APPROACH
Data shape: (40000, 601, 15)
Epochs: 6, Batch size: 500
_________________________________________________________________
Layer (type)                 Output Shape              Param #   
=================================================================
input_10 (InputLayer)        (None, 601, 15)           0         
_________________________________________________________________
flatten_10 (Flatten)         (None, 9015)              0         
_________________________________________________________________
dense_46 (Dense)             (None, 150)               1352400   
_________________________________________________________________
dropout_37 (Dropout)         (None, 150)               0         
_________________________________________________________________
dense_47 (Dense)             (None, 80)                12080     
_________________________________________________________________
dropout_38 (Dropout)         (None, 80)                0         
_________________________________________________________________
dense_48 (Dense)             (None, 30)                2430      
_________________________________________________________________
dropout_39 (Dropout)         (None, 30)                0         
_________________________________________________________________
dense_49 (Dense)             (None, 10)                310       
_________________________________________________________________
dropout_40 (Dropout)         (None, 10)                0         
_________________________________________________________________
dense_50 (Dense)             (None, 1)                 11        
=================================================================
Total params: 1,367,231
Trainable params: 1,367,231
Non-trainable params: 0
_________________________________________________________________
Confusion matrix: [[1818  182]
 [ 118 1882]]
Classified acceptor_data
Mean: 91.71, Std: 1.0682462262980381

This took 554.2120506763458 seconds.


-------------------------------------------------------------------------------

DiProDB: BINARY CLASSIFICATION APPROACH
Data shape: (40000, 601, 15)
Epochs: 15, Batch size: 500
_________________________________________________________________
Layer (type)                 Output Shape              Param #   
=================================================================
input_10 (InputLayer)        (None, 601, 15)           0         
_________________________________________________________________
flatten_10 (Flatten)         (None, 9015)              0         
_________________________________________________________________
dense_37 (Dense)             (None, 100)               901600    
_________________________________________________________________
dropout_28 (Dropout)         (None, 100)               0         
_________________________________________________________________
dense_38 (Dense)             (None, 40)                4040      
_________________________________________________________________
dropout_29 (Dropout)         (None, 40)                0         
_________________________________________________________________
dense_39 (Dense)             (None, 40)                1640      
_________________________________________________________________
dropout_30 (Dropout)         (None, 40)                0         
_________________________________________________________________
dense_40 (Dense)             (None, 1)                 41        
=================================================================
Total params: 907,321
Trainable params: 907,321
Non-trainable params: 0
_________________________________________________________________
Confusion matrix: [[1841  159]
 [ 127 1873]]
Classified acceptor_data
Mean: 92.38250000000001, Std: 0.361602336828732

This took 877.4812331199646 seconds.


-------------------------------------------------------------------------------

DiProDB: BINARY CLASSIFICATION APPROACH
Data shape: (40000, 601, 15)
Epochs: 15, Batch size: 500
_________________________________________________________________
Layer (type)                 Output Shape              Param #   
=================================================================
input_20 (InputLayer)        (None, 601, 15)           0         
_________________________________________________________________
flatten_20 (Flatten)         (None, 9015)              0         
_________________________________________________________________
dense_77 (Dense)             (None, 100)               901600    
_________________________________________________________________
dropout_58 (Dropout)         (None, 100)               0         
_________________________________________________________________
dense_78 (Dense)             (None, 40)                4040      
_________________________________________________________________
dropout_59 (Dropout)         (None, 40)                0         
_________________________________________________________________
dense_79 (Dense)             (None, 40)                1640      
_________________________________________________________________
dropout_60 (Dropout)         (None, 40)                0         
_________________________________________________________________
dense_80 (Dense)             (None, 1)                 41        
=================================================================
Total params: 907,321
Trainable params: 907,321
Non-trainable params: 0
_________________________________________________________________
Confusion matrix: [[1858  142]
 [ 127 1873]]
Classified donor_data
Mean: 93.5825, Std: 0.31584212828563335

This took 842.6267728805542 seconds.


-------------------------------------------------------------------------------

DiProDB: BINARY CLASSIFICATION APPROACH
Data shape: (40000, 601, 15, 1)
Epochs: 10, Batch size: 500
Model: "model_10"
_________________________________________________________________
Layer (type)                 Output Shape              Param #   
=================================================================
input_10 (InputLayer)        (None, 601, 15, 1)        0         
_________________________________________________________________
conv2d_19 (Conv2D)           (None, 597, 1, 32)        2432      
_________________________________________________________________
max_pooling2d_19 (MaxPooling (None, 199, 1, 32)        0         
_________________________________________________________________
conv2d_20 (Conv2D)           (None, 197, 1, 64)        6208      
_________________________________________________________________
max_pooling2d_20 (MaxPooling (None, 65, 1, 64)         0         
_________________________________________________________________
flatten_10 (Flatten)         (None, 4160)              0         
_________________________________________________________________
dense_37 (Dense)             (None, 40)                166440    
_________________________________________________________________
dropout_28 (Dropout)         (None, 40)                0         
_________________________________________________________________
dense_38 (Dense)             (None, 40)                1640      
_________________________________________________________________
dropout_29 (Dropout)         (None, 40)                0         
_________________________________________________________________
dense_39 (Dense)             (None, 40)                1640      
_________________________________________________________________
dropout_30 (Dropout)         (None, 40)                0         
_________________________________________________________________
dense_40 (Dense)             (None, 1)                 41        
=================================================================
Total params: 178,401
Trainable params: 178,401
Non-trainable params: 0
_________________________________________________________________
Confusion matrix: [[1873  127]
 [ 102 1898]]
Classified acceptor_data
Mean: 94.145, Std: 0.2585536694769576

This took 856.5522632598877 seconds.


-------------------------------------------------------------------------------

DiProDB: BINARY CLASSIFICATION APPROACH
Data shape: (40000, 601, 15, 1)
Epochs: 10, Batch size: 500
Model: "model_10"
_________________________________________________________________
Layer (type)                 Output Shape              Param #   
=================================================================
input_10 (InputLayer)        (None, 601, 15, 1)        0         
_________________________________________________________________
conv2d_19 (Conv2D)           (None, 597, 1, 32)        2432      
_________________________________________________________________
max_pooling2d_19 (MaxPooling (None, 199, 1, 32)        0         
_________________________________________________________________
conv2d_20 (Conv2D)           (None, 197, 1, 64)        6208      
_________________________________________________________________
max_pooling2d_20 (MaxPooling (None, 65, 1, 64)         0         
_________________________________________________________________
flatten_10 (Flatten)         (None, 4160)              0         
_________________________________________________________________
dense_28 (Dense)             (None, 64)                266304    
_________________________________________________________________
dropout_19 (Dropout)         (None, 64)                0         
_________________________________________________________________
dense_29 (Dense)             (None, 64)                4160      
_________________________________________________________________
dropout_20 (Dropout)         (None, 64)                0         
_________________________________________________________________
dense_30 (Dense)             (None, 1)                 65        
=================================================================
Total params: 279,169
Trainable params: 279,169
Non-trainable params: 0
_________________________________________________________________
Confusion matrix: [[1907   93]
 [ 109 1891]]
Classified acceptor_data
Mean: 94.4125, Std: 0.32504807336761854

This took 883.9107520580292 seconds.


-------------------------------------------------------------------------------

DiProDB: BINARY CLASSIFICATION APPROACH
Data shape: (40000, 601, 15, 1)
Epochs: 10, Batch size: 500
Model: "model_20"
_________________________________________________________________
Layer (type)                 Output Shape              Param #   
=================================================================
input_20 (InputLayer)        (None, 601, 15, 1)        0         
_________________________________________________________________
conv2d_39 (Conv2D)           (None, 597, 1, 32)        2432      
_________________________________________________________________
max_pooling2d_39 (MaxPooling (None, 199, 1, 32)        0         
_________________________________________________________________
conv2d_40 (Conv2D)           (None, 197, 1, 64)        6208      
_________________________________________________________________
max_pooling2d_40 (MaxPooling (None, 65, 1, 64)         0         
_________________________________________________________________
flatten_20 (Flatten)         (None, 4160)              0         
_________________________________________________________________
dense_58 (Dense)             (None, 64)                266304    
_________________________________________________________________
dropout_39 (Dropout)         (None, 64)                0         
_________________________________________________________________
dense_59 (Dense)             (None, 64)                4160      
_________________________________________________________________
dropout_40 (Dropout)         (None, 64)                0         
_________________________________________________________________
dense_60 (Dense)             (None, 1)                 65        
=================================================================
Total params: 279,169
Trainable params: 279,169
Non-trainable params: 0
_________________________________________________________________
Confusion matrix: [[1887  113]
 [ 105 1895]]
Classified donor_data
Mean: 94.895, Std: 0.2666458325194685

This took 813.6925716400146 seconds.


-------------------------------------------------------------------------------

BINARY CLASSIFICATION APPROACH
Data shape: (40000, 602, 4, 1)
Epochs: 10, Batch size: 500
Model: "model_10"
_________________________________________________________________
Layer (type)                 Output Shape              Param #   
=================================================================
input_10 (InputLayer)        (None, 602, 4, 1)         0         
_________________________________________________________________
conv2d_19 (Conv2D)           (None, 600, 1, 32)        416       
_________________________________________________________________
max_pooling2d_19 (MaxPooling (None, 300, 1, 32)        0         
_________________________________________________________________
conv2d_20 (Conv2D)           (None, 298, 1, 64)        6208      
_________________________________________________________________
max_pooling2d_20 (MaxPooling (None, 99, 1, 64)         0         
_________________________________________________________________
flatten_10 (Flatten)         (None, 6336)              0         
_________________________________________________________________
dense_37 (Dense)             (None, 40)                253480    
_________________________________________________________________
dropout_28 (Dropout)         (None, 40)                0         
_________________________________________________________________
dense_38 (Dense)             (None, 40)                1640      
_________________________________________________________________
dropout_29 (Dropout)         (None, 40)                0         
_________________________________________________________________
dense_39 (Dense)             (None, 40)                1640      
_________________________________________________________________
dropout_30 (Dropout)         (None, 40)                0         
_________________________________________________________________
dense_40 (Dense)             (None, 1)                 41        
=================================================================
Total params: 263,425
Trainable params: 263,425
Non-trainable params: 0
_________________________________________________________________
Confusion matrix: [[1866  134]
 [ 108 1892]]
Recall: 94.52887537993921
Precision: 93.30000000000001
Classified acceptor_data
Mean: 93.51750000000001, Std: 0.5105205676561928

This took 476.1951901912689 seconds.


-------------------------------------------------------------------------------

BINARY CLASSIFICATION APPROACH
Data shape: (40000, 602, 4, 1)
Epochs: 10, Batch size: 500
Model: "model_10"
_________________________________________________________________
Layer (type)                 Output Shape              Param #   
=================================================================
input_10 (InputLayer)        (None, 602, 4, 1)         0         
_________________________________________________________________
conv2d_19 (Conv2D)           (None, 600, 1, 32)        416       
_________________________________________________________________
max_pooling2d_19 (MaxPooling (None, 300, 1, 32)        0         
_________________________________________________________________
conv2d_20 (Conv2D)           (None, 298, 1, 64)        6208      
_________________________________________________________________
max_pooling2d_20 (MaxPooling (None, 99, 1, 64)         0         
_________________________________________________________________
flatten_10 (Flatten)         (None, 6336)              0         
_________________________________________________________________
dense_37 (Dense)             (None, 40)                253480    
_________________________________________________________________
dropout_28 (Dropout)         (None, 40)                0         
_________________________________________________________________
dense_38 (Dense)             (None, 40)                1640      
_________________________________________________________________
dropout_29 (Dropout)         (None, 40)                0         
_________________________________________________________________
dense_39 (Dense)             (None, 40)                1640      
_________________________________________________________________
dropout_30 (Dropout)         (None, 40)                0         
_________________________________________________________________
dense_40 (Dense)             (None, 1)                 41        
=================================================================
Total params: 263,425
Trainable params: 263,425
Non-trainable params: 0
_________________________________________________________________
Confusion matrix: [[1879  121]
 [ 135 1865]]
Recall: 93.29692154915591
Precision: 93.95
Classified donor_data
Mean: 94.035, Std: 0.39515819616958414

This took 505.6514563560486 seconds.


-------------------------------------------------------------------------------

BINARY CLASSIFICATION APPROACH
Data shape: (40000, 602, 4, 1)
Epochs: 10, Batch size: 500
Model: "model_10"
_________________________________________________________________
Layer (type)                 Output Shape              Param #   
=================================================================
input_10 (InputLayer)        (None, 602, 4, 1)         0         
_________________________________________________________________
conv2d_28 (Conv2D)           (None, 600, 1, 32)        416       
_________________________________________________________________
max_pooling2d_28 (MaxPooling (None, 300, 1, 32)        0         
_________________________________________________________________
conv2d_29 (Conv2D)           (None, 298, 1, 64)        6208      
_________________________________________________________________
max_pooling2d_29 (MaxPooling (None, 99, 1, 64)         0         
_________________________________________________________________
conv2d_30 (Conv2D)           (None, 97, 1, 128)        24704     
_________________________________________________________________
max_pooling2d_30 (MaxPooling (None, 32, 1, 128)        0         
_________________________________________________________________
flatten_10 (Flatten)         (None, 4096)              0         
_________________________________________________________________
dense_28 (Dense)             (None, 64)                262208    
_________________________________________________________________
dropout_19 (Dropout)         (None, 64)                0         
_________________________________________________________________
dense_29 (Dense)             (None, 64)                4160      
_________________________________________________________________
dropout_20 (Dropout)         (None, 64)                0         
_________________________________________________________________
dense_30 (Dense)             (None, 1)                 65        
=================================================================
Total params: 297,761
Trainable params: 297,761
Non-trainable params: 0
_________________________________________________________________
Confusion matrix: [[1894  106]
 [ 105 1895]]
Recall: 94.74737368684342
Precision: 94.69999999999999
Classified donor_data
Mean: 94.43750000000001, Std: 0.3455520944807027

This took 653.2831311225891 seconds.


-------------------------------------------------------------------------------

BINARY CLASSIFICATION APPROACH
Data shape: (40000, 602, 4, 1)
Epochs: 10, Batch size: 500
Model: "model_10"
_________________________________________________________________
Layer (type)                 Output Shape              Param #   
=================================================================
input_10 (InputLayer)        (None, 602, 4, 1)         0         
_________________________________________________________________
conv2d_28 (Conv2D)           (None, 601, 1, 32)        288       
_________________________________________________________________
max_pooling2d_28 (MaxPooling (None, 300, 1, 32)        0         
_________________________________________________________________
conv2d_29 (Conv2D)           (None, 298, 1, 64)        6208      
_________________________________________________________________
max_pooling2d_29 (MaxPooling (None, 149, 1, 64)        0         
_________________________________________________________________
conv2d_30 (Conv2D)           (None, 145, 1, 128)       41088     
_________________________________________________________________
max_pooling2d_30 (MaxPooling (None, 72, 1, 128)        0         
_________________________________________________________________
flatten_10 (Flatten)         (None, 9216)              0         
_________________________________________________________________
dense_28 (Dense)             (None, 64)                589888    
_________________________________________________________________
dropout_19 (Dropout)         (None, 64)                0         
_________________________________________________________________
dense_29 (Dense)             (None, 64)                4160      
_________________________________________________________________
dropout_20 (Dropout)         (None, 64)                0         
_________________________________________________________________
dense_30 (Dense)             (None, 1)                 65        
=================================================================
Total params: 641,697
Trainable params: 641,697
Non-trainable params: 0
_________________________________________________________________
Confusion matrix: [[1929   71]
 [ 170 1830]]
Recall: 91.90090519294903
Precision: 96.45
Classified donor_data
Mean: 94.4, Std: 0.4434241761564192

This took 832.2476902008057 seconds.


-------------------------------------------------------------------------------

DiProDB: BINARY CLASSIFICATION APPROACH
Data shape: (40000, 601, 15, 1)
Epochs: 10, Batch size: 500
Model: "model_10"
_________________________________________________________________
Layer (type)                 Output Shape              Param #   
=================================================================
input_10 (InputLayer)        (None, 601, 15, 1)        0         
_________________________________________________________________
conv2d_28 (Conv2D)           (None, 599, 1, 32)        1472      
_________________________________________________________________
max_pooling2d_28 (MaxPooling (None, 299, 1, 32)        0         
_________________________________________________________________
conv2d_29 (Conv2D)           (None, 297, 1, 64)        6208      
_________________________________________________________________
max_pooling2d_29 (MaxPooling (None, 148, 1, 64)        0         
_________________________________________________________________
conv2d_30 (Conv2D)           (None, 146, 1, 128)       24704     
_________________________________________________________________
max_pooling2d_30 (MaxPooling (None, 48, 1, 128)        0         
_________________________________________________________________
flatten_10 (Flatten)         (None, 6144)              0         
_________________________________________________________________
dense_28 (Dense)             (None, 64)                393280    
_________________________________________________________________
dropout_19 (Dropout)         (None, 64)                0         
_________________________________________________________________
dense_29 (Dense)             (None, 64)                4160      
_________________________________________________________________
dropout_20 (Dropout)         (None, 64)                0         
_________________________________________________________________
dense_30 (Dense)             (None, 1)                 65        
=================================================================
Total params: 429,889
Trainable params: 429,889
Non-trainable params: 0
_________________________________________________________________
Confusion matrix: [[1877  123]
 [ 101 1899]]
Recall: 94.8938321536906
Precision: 93.85
Classified acceptor_data
Mean: 94.03, Std: 0.3261134771824033

This took 1176.5941126346588 seconds.


-------------------------------------------------------------------------------

DiProDB: BINARY CLASSIFICATION APPROACH
Data shape: (40000, 601, 15, 1)
Epochs: 10, Batch size: 500
Model: "model_20"
_________________________________________________________________
Layer (type)                 Output Shape              Param #   
=================================================================
input_20 (InputLayer)        (None, 601, 15, 1)        0         
_________________________________________________________________
conv2d_58 (Conv2D)           (None, 599, 1, 32)        1472      
_________________________________________________________________
max_pooling2d_58 (MaxPooling (None, 299, 1, 32)        0         
_________________________________________________________________
conv2d_59 (Conv2D)           (None, 297, 1, 64)        6208      
_________________________________________________________________
max_pooling2d_59 (MaxPooling (None, 148, 1, 64)        0         
_________________________________________________________________
conv2d_60 (Conv2D)           (None, 146, 1, 128)       24704     
_________________________________________________________________
max_pooling2d_60 (MaxPooling (None, 48, 1, 128)        0         
_________________________________________________________________
flatten_20 (Flatten)         (None, 6144)              0         
_________________________________________________________________
dense_58 (Dense)             (None, 64)                393280    
_________________________________________________________________
dropout_39 (Dropout)         (None, 64)                0         
_________________________________________________________________
dense_59 (Dense)             (None, 64)                4160      
_________________________________________________________________
dropout_40 (Dropout)         (None, 64)                0         
_________________________________________________________________
dense_60 (Dense)             (None, 1)                 65        
=================================================================
Total params: 429,889
Trainable params: 429,889
Non-trainable params: 0
_________________________________________________________________
Confusion matrix: [[1908   92]
 [ 174 1826]]
Recall: 91.64265129682997
Precision: 95.39999999999999
Classified donor_data
Mean: 94.2225, Std: 0.4676336707295598

This took 1174.138830423355 seconds.


-------------------------------------------------------------------------------

DiProDB: BINARY CLASSIFICATION APPROACH
Data shape: (40000, 601, 15, 1)
Epochs: 5, Batch size: 500
Model: "model_10"
_________________________________________________________________
Layer (type)                 Output Shape              Param #   
=================================================================
input_10 (InputLayer)        (None, 601, 15, 1)        0         
_________________________________________________________________
conv2d_28 (Conv2D)           (None, 599, 1, 32)        1472      
_________________________________________________________________
max_pooling2d_28 (MaxPooling (None, 299, 1, 32)        0         
_________________________________________________________________
conv2d_29 (Conv2D)           (None, 297, 1, 64)        6208      
_________________________________________________________________
max_pooling2d_29 (MaxPooling (None, 148, 1, 64)        0         
_________________________________________________________________
conv2d_30 (Conv2D)           (None, 146, 1, 128)       24704     
_________________________________________________________________
max_pooling2d_30 (MaxPooling (None, 48, 1, 128)        0         
_________________________________________________________________
flatten_10 (Flatten)         (None, 6144)              0         
_________________________________________________________________
dense_28 (Dense)             (None, 64)                393280    
_________________________________________________________________
dropout_19 (Dropout)         (None, 64)                0         
_________________________________________________________________
dense_29 (Dense)             (None, 64)                4160      
_________________________________________________________________
dropout_20 (Dropout)         (None, 64)                0         
_________________________________________________________________
dense_30 (Dense)             (None, 1)                 65        
=================================================================
Total params: 429,889
Trainable params: 429,889
Non-trainable params: 0
_________________________________________________________________
Confusion matrix: [[1939   61]
 [ 129 1871]]
Recall: 93.76208897485493
Precision: 96.95
Classified acceptor_data
Mean: 94.36999999999999, Std: 0.546214243680993

This took 583.8096423149109 seconds.


-------------------------------------------------------------------------------

DiProDB: BINARY CLASSIFICATION APPROACH
Data shape: (40000, 601, 15, 1)
Epochs: 5, Batch size: 500
Model: "model_20"
_________________________________________________________________
Layer (type)                 Output Shape              Param #   
=================================================================
input_20 (InputLayer)        (None, 601, 15, 1)        0         
_________________________________________________________________
conv2d_58 (Conv2D)           (None, 599, 1, 32)        1472      
_________________________________________________________________
max_pooling2d_58 (MaxPooling (None, 299, 1, 32)        0         
_________________________________________________________________
conv2d_59 (Conv2D)           (None, 297, 1, 64)        6208      
_________________________________________________________________
max_pooling2d_59 (MaxPooling (None, 148, 1, 64)        0         
_________________________________________________________________
conv2d_60 (Conv2D)           (None, 146, 1, 128)       24704     
_________________________________________________________________
max_pooling2d_60 (MaxPooling (None, 48, 1, 128)        0         
_________________________________________________________________
flatten_20 (Flatten)         (None, 6144)              0         
_________________________________________________________________
dense_58 (Dense)             (None, 64)                393280    
_________________________________________________________________
dropout_39 (Dropout)         (None, 64)                0         
_________________________________________________________________
dense_59 (Dense)             (None, 64)                4160      
_________________________________________________________________
dropout_40 (Dropout)         (None, 64)                0         
_________________________________________________________________
dense_60 (Dense)             (None, 1)                 65        
=================================================================
Total params: 429,889
Trainable params: 429,889
Non-trainable params: 0
_________________________________________________________________
Confusion matrix: [[1883  117]
 [  86 1914]]
Recall: 95.63230066023361
Precision: 94.15
Classified donor_data
Mean: 90.56499999999998, Std: 13.523272532933735

This took 621.9829001426697 seconds.


-------------------------------------------------------------------------------

DiProDB: BINARY CLASSIFICATION APPROACH
Data shape: (40000, 601, 15, 1)
Epochs: 5, Batch size: 500
Model: "model_10"
_________________________________________________________________
Layer (type)                 Output Shape              Param #   
=================================================================
input_10 (InputLayer)        (None, 601, 15, 1)        0         
_________________________________________________________________
conv2d_28 (Conv2D)           (None, 599, 1, 32)        1472      
_________________________________________________________________
max_pooling2d_28 (MaxPooling (None, 299, 1, 32)        0         
_________________________________________________________________
conv2d_29 (Conv2D)           (None, 297, 1, 64)        6208      
_________________________________________________________________
max_pooling2d_29 (MaxPooling (None, 148, 1, 64)        0         
_________________________________________________________________
conv2d_30 (Conv2D)           (None, 146, 1, 128)       24704     
_________________________________________________________________
max_pooling2d_30 (MaxPooling (None, 48, 1, 128)        0         
_________________________________________________________________
flatten_10 (Flatten)         (None, 6144)              0         
_________________________________________________________________
dense_28 (Dense)             (None, 64)                393280    
_________________________________________________________________
dropout_19 (Dropout)         (None, 64)                0         
_________________________________________________________________
dense_29 (Dense)             (None, 64)                4160      
_________________________________________________________________
dropout_20 (Dropout)         (None, 64)                0         
_________________________________________________________________
dense_30 (Dense)             (None, 1)                 65        
=================================================================
Total params: 429,889
Trainable params: 429,889
Non-trainable params: 0
_________________________________________________________________
Confusion matrix: [[1929   71]
 [ 130 1870]]
Recall: 93.68625546381739
Precision: 96.45
Classified donor_data
Mean: 95.16, Std: 0.31902194281898555

This took 598.0895502567291 seconds.


-------------------------------------------------------------------------------

repDNA: KMER BINARY CLASSIFICATION APPROACH
Data shape: (40000, 20, 1)
Epochs: 10, Batch size: 500
__________________________________________________________________________________________________
Layer (type)                    Output Shape         Param #     Connected to                     
==================================================================================================
input_10 (InputLayer)           (None, 20, 1)        0                                            
__________________________________________________________________________________________________
conv1d_37 (Conv1D)              (None, 19, 16)       48          input_10[0][0]                   
__________________________________________________________________________________________________
conv1d_38 (Conv1D)              (None, 18, 16)       64          input_10[0][0]                   
__________________________________________________________________________________________________
conv1d_39 (Conv1D)              (None, 17, 16)       80          input_10[0][0]                   
__________________________________________________________________________________________________
conv1d_40 (Conv1D)              (None, 16, 16)       96          input_10[0][0]                   
__________________________________________________________________________________________________
max_pooling1d_37 (MaxPooling1D) (None, 6, 16)        0           conv1d_37[0][0]                  
__________________________________________________________________________________________________
max_pooling1d_38 (MaxPooling1D) (None, 6, 16)        0           conv1d_38[0][0]                  
__________________________________________________________________________________________________
max_pooling1d_39 (MaxPooling1D) (None, 5, 16)        0           conv1d_39[0][0]                  
__________________________________________________________________________________________________
max_pooling1d_40 (MaxPooling1D) (None, 5, 16)        0           conv1d_40[0][0]                  
__________________________________________________________________________________________________
concatenate_10 (Concatenate)    (None, 22, 16)       0           max_pooling1d_37[0][0]           
                                                                 max_pooling1d_38[0][0]           
                                                                 max_pooling1d_39[0][0]           
                                                                 max_pooling1d_40[0][0]           
__________________________________________________________________________________________________
flatten_10 (Flatten)            (None, 352)          0           concatenate_10[0][0]             
__________________________________________________________________________________________________
dense_19 (Dense)                (None, 64)           22592       flatten_10[0][0]                 
__________________________________________________________________________________________________
dropout_10 (Dropout)            (None, 64)           0           dense_19[0][0]                   
__________________________________________________________________________________________________
dense_20 (Dense)                (None, 1)            65          dropout_10[0][0]                 
==================================================================================================
Total params: 22,945
Trainable params: 22,945
Non-trainable params: 0
__________________________________________________________________________________________________
Confusion matrix: [[1461  539]
 [ 366 1634]]
Recall: 79.96715927750411
Precision: 73.05
Classified acceptor_data
…
Confusion matrix: [[1420  580]
 [ 395 1605]]
Recall: 78.23691460055096
Precision: 71.0
Classified donor_data
Mean: 74.9, Std: 0.5961333743383264

This took 625.2779018878937 seconds.


-------------------------------------------------------------------------------

repDNA: IDKMER BINARY CLASSIFICATION APPROACH
Data shape: (40000, 4, 1)
Epochs: 10, Batch size: 500
Model: "model_10"
_________________________________________________________________
Layer (type)                 Output Shape              Param #   
=================================================================
input_10 (InputLayer)        (None, 4, 1)              0         
_________________________________________________________________
conv1d_10 (Conv1D)           (None, 1, 32)             160       
_________________________________________________________________
flatten_10 (Flatten)         (None, 32)                0         
_________________________________________________________________
dense_19 (Dense)             (None, 64)                2112      
_________________________________________________________________
dropout_10 (Dropout)         (None, 64)                0         
_________________________________________________________________
dense_20 (Dense)             (None, 1)                 65        
=================================================================
Total params: 2,337
Trainable params: 2,337
Non-trainable params: 0
_________________________________________________________________
Confusion matrix: [[1440  560]
 [ 425 1575]]
Recall: 77.21179624664879
Precision: 72.0
Classified acceptor_data
Mean: 75.15, Std: 0.7003570517957239

This took 46.105143547058105 seconds.


-------------------------------------------------------------------------------

repDNA: IDKMER BINARY CLASSIFICATION APPROACH
Data shape: (40000, 4, 1)
Epochs: 10, Batch size: 500
Model: "model_20"
_________________________________________________________________
Layer (type)                 Output Shape              Param #   
=================================================================
input_20 (InputLayer)        (None, 4, 1)              0         
_________________________________________________________________
conv1d_20 (Conv1D)           (None, 1, 32)             160       
_________________________________________________________________
flatten_20 (Flatten)         (None, 32)                0         
_________________________________________________________________
dense_39 (Dense)             (None, 64)                2112      
_________________________________________________________________
dropout_20 (Dropout)         (None, 64)                0         
_________________________________________________________________
dense_40 (Dense)             (None, 1)                 65        
=================================================================
Total params: 2,337
Trainable params: 2,337
Non-trainable params: 0
_________________________________________________________________
Confusion matrix: [[1375  625]
 [ 434 1566]]
Recall: 76.00884466556109
Precision: 68.75
Classified donor_data
Mean: 72.8625, Std: 0.6038677421422677

This took 59.00852918624878 seconds.


-------------------------------------------------------------------------------

repDNA: DAC BINARY CLASSIFICATION APPROACH
Data shape: (40000, 76, 1)
Epochs: 10, Batch size: 500
Model: "model_10"
__________________________________________________________________________________________________
Layer (type)                    Output Shape         Param #     Connected to                     
==================================================================================================
input_10 (InputLayer)           (None, 76, 1)        0                                            
__________________________________________________________________________________________________
conv1d_19 (Conv1D)              (None, 74, 32)       128         input_10[0][0]                   
__________________________________________________________________________________________________
conv1d_20 (Conv1D)              (None, 72, 32)       192         input_10[0][0]                   
__________________________________________________________________________________________________
max_pooling1d_19 (MaxPooling1D) (None, 24, 32)       0           conv1d_19[0][0]                  
__________________________________________________________________________________________________
max_pooling1d_20 (MaxPooling1D) (None, 24, 32)       0           conv1d_20[0][0]                  
__________________________________________________________________________________________________
concatenate_10 (Concatenate)    (None, 48, 32)       0           max_pooling1d_19[0][0]           
                                                                 max_pooling1d_20[0][0]           
__________________________________________________________________________________________________
flatten_10 (Flatten)            (None, 1536)         0           concatenate_10[0][0]             
__________________________________________________________________________________________________
dense_19 (Dense)                (None, 64)           98368       flatten_10[0][0]                 
__________________________________________________________________________________________________
dropout_10 (Dropout)            (None, 64)           0           dense_19[0][0]                   
__________________________________________________________________________________________________
dense_20 (Dense)                (None, 1)            65          dropout_10[0][0]                 
==================================================================================================
Total params: 98,753
Trainable params: 98,753
Non-trainable params: 0
__________________________________________________________________________________________________
Confusion matrix: [[1458  542]
 [ 483 1517]]
Recall: 75.11591962905719
Precision: 72.89999999999999
…
Confusion matrix: [[1425  575]
 [ 506 1494]]
Recall: 73.79596064215433
Precision: 71.25
Classified donor_data
Mean: 72.86, Std: 0.8454436705067925

This took 118.45912861824036 seconds.


-------------------------------------------------------------------------------

repDNA: DAC BINARY CLASSIFICATION APPROACH
Data shape: (40000, 76, 1)
Epochs: 10, Batch size: 500
Model: "model_10"
_________________________________________________________________
Layer (type)                 Output Shape              Param #   
=================================================================
input_10 (InputLayer)        (None, 76, 1)             0         
_________________________________________________________________
flatten_10 (Flatten)         (None, 76)                0         
_________________________________________________________________
dense_37 (Dense)             (None, 64)                4928      
_________________________________________________________________
dropout_28 (Dropout)         (None, 64)                0         
_________________________________________________________________
dense_38 (Dense)             (None, 64)                4160      
_________________________________________________________________
dropout_29 (Dropout)         (None, 64)                0         
_________________________________________________________________
dense_39 (Dense)             (None, 64)                4160      
_________________________________________________________________
dropout_30 (Dropout)         (None, 64)                0         
_________________________________________________________________
dense_40 (Dense)             (None, 1)                 65        
=================================================================
Total params: 13,313
Trainable params: 13,313
Non-trainable params: 0
_________________________________________________________________
Confusion matrix: [[1349  651]
 [ 345 1655]]
Recall: 79.6340023612751
Precision: 67.45
Classified acceptor_data
Mean: 74.83, Std: 0.655534133359963

This took 70.18462872505188 seconds.


-------------------------------------------------------------------------------

repDNA: DAC BINARY CLASSIFICATION APPROACH
Data shape: (40000, 76, 1)
Epochs: 10, Batch size: 500
Model: "model_20"
_________________________________________________________________
Layer (type)                 Output Shape              Param #   
=================================================================
input_20 (InputLayer)        (None, 76, 1)             0         
_________________________________________________________________
flatten_20 (Flatten)         (None, 76)                0         
_________________________________________________________________
dense_77 (Dense)             (None, 64)                4928      
_________________________________________________________________
dropout_58 (Dropout)         (None, 64)                0         
_________________________________________________________________
dense_78 (Dense)             (None, 64)                4160      
_________________________________________________________________
dropout_59 (Dropout)         (None, 64)                0         
_________________________________________________________________
dense_79 (Dense)             (None, 64)                4160      
_________________________________________________________________
dropout_60 (Dropout)         (None, 64)                0         
_________________________________________________________________
dense_80 (Dense)             (None, 1)                 65        
=================================================================
Total params: 13,313
Trainable params: 13,313
Non-trainable params: 0
_________________________________________________________________
Confusion matrix: [[1276  724]
 [ 328 1672]]
Recall: 79.55112219451371
Precision: 63.800000000000004
Classified donor_data
Mean: 73.38250000000001, Std: 0.5101531632755003

This took 86.96217060089111 seconds.


-------------------------------------------------------------------------------

repDNA: DCC BINARY CLASSIFICATION APPROACH
Data shape: (40000, 1406, 1)
Epochs: 10, Batch size: 500
Model: "model_10"
__________________________________________________________________________________________________
Layer (type)                    Output Shape         Param #     Connected to                     
==================================================================================================
input_10 (InputLayer)           (None, 1406, 1)      0                                            
__________________________________________________________________________________________________
conv1d_19 (Conv1D)              (None, 1404, 32)     128         input_10[0][0]                   
__________________________________________________________________________________________________
conv1d_20 (Conv1D)              (None, 1402, 32)     192         input_10[0][0]                   
__________________________________________________________________________________________________
max_pooling1d_19 (MaxPooling1D) (None, 468, 32)      0           conv1d_19[0][0]                  
__________________________________________________________________________________________________
max_pooling1d_20 (MaxPooling1D) (None, 467, 32)      0           conv1d_20[0][0]                  
__________________________________________________________________________________________________
concatenate_10 (Concatenate)    (None, 935, 32)      0           max_pooling1d_19[0][0]           
                                                                 max_pooling1d_20[0][0]           
__________________________________________________________________________________________________
flatten_10 (Flatten)            (None, 29920)        0           concatenate_10[0][0]             
__________________________________________________________________________________________________
dense_19 (Dense)                (None, 64)           1914944     flatten_10[0][0]                 
__________________________________________________________________________________________________
dropout_10 (Dropout)            (None, 64)           0           dense_19[0][0]                   
__________________________________________________________________________________________________
dense_20 (Dense)                (None, 1)            65          dropout_10[0][0]                 
==================================================================================================
Total params: 1,915,329
Trainable params: 1,915,329
Non-trainable params: 0
__________________________________________________________________________________________________
Confusion matrix: [[1595  405]
 [ 449 1551]]
Recall: 78.03326810176125
Precision: 79.75
…
Mean: 74.5925, Std: 8.227408841792172

This took 1421.9965662956238 seconds.


-------------------------------------------------------------------------------

repDNA: PC-PseDNC BINARY CLASSIFICATION APPROACH
Data shape: (40000, 18, 1)
Epochs: 10, Batch size: 500
Model: "model_10"
__________________________________________________________________________________________________
Layer (type)                    Output Shape         Param #     Connected to                     
==================================================================================================
input_10 (InputLayer)           (None, 18, 1)        0                                            
__________________________________________________________________________________________________
conv1d_19 (Conv1D)              (None, 16, 32)       128         input_10[0][0]                   
__________________________________________________________________________________________________
conv1d_20 (Conv1D)              (None, 14, 32)       192         input_10[0][0]                   
__________________________________________________________________________________________________
max_pooling1d_19 (MaxPooling1D) (None, 5, 32)        0           conv1d_19[0][0]                  
__________________________________________________________________________________________________
max_pooling1d_20 (MaxPooling1D) (None, 4, 32)        0           conv1d_20[0][0]                  
__________________________________________________________________________________________________
concatenate_10 (Concatenate)    (None, 9, 32)        0           max_pooling1d_19[0][0]           
                                                                 max_pooling1d_20[0][0]           
__________________________________________________________________________________________________
flatten_10 (Flatten)            (None, 288)          0           concatenate_10[0][0]             
__________________________________________________________________________________________________
dense_19 (Dense)                (None, 64)           18496       flatten_10[0][0]                 
__________________________________________________________________________________________________
dropout_10 (Dropout)            (None, 64)           0           dense_19[0][0]                   
__________________________________________________________________________________________________
dense_20 (Dense)                (None, 1)            65          dropout_10[0][0]                 
==================================================================================================
Total params: 18,881
Trainable params: 18,881
Non-trainable params: 0
__________________________________________________________________________________________________
Confusion matrix: [[1498  502]
 [ 396 1604]]
Recall: 79.09186906019008
Precision: 74.9
Classified acceptor_data
…
Mean: 75.485, Std: 0.4713279113313748

This took 86.43183064460754 seconds.


-------------------------------------------------------------------------------

repDNA: PC-PseTNC BINARY CLASSIFICATION APPROACH
Data shape: (40000, 66, 1)
Epochs: 10, Batch size: 500
Model: "model_10"
__________________________________________________________________________________________________
Layer (type)                    Output Shape         Param #     Connected to                     
==================================================================================================
input_10 (InputLayer)           (None, 66, 1)        0                                            
__________________________________________________________________________________________________
conv1d_19 (Conv1D)              (None, 64, 32)       128         input_10[0][0]                   
__________________________________________________________________________________________________
conv1d_20 (Conv1D)              (None, 62, 32)       192         input_10[0][0]                   
__________________________________________________________________________________________________
max_pooling1d_19 (MaxPooling1D) (None, 21, 32)       0           conv1d_19[0][0]                  
__________________________________________________________________________________________________
max_pooling1d_20 (MaxPooling1D) (None, 20, 32)       0           conv1d_20[0][0]                  
__________________________________________________________________________________________________
concatenate_10 (Concatenate)    (None, 41, 32)       0           max_pooling1d_19[0][0]           
                                                                 max_pooling1d_20[0][0]           
__________________________________________________________________________________________________
flatten_10 (Flatten)            (None, 1312)         0           concatenate_10[0][0]             
__________________________________________________________________________________________________
dense_19 (Dense)                (None, 64)           84032       flatten_10[0][0]                 
__________________________________________________________________________________________________
dropout_10 (Dropout)            (None, 64)           0           dense_19[0][0]                   
__________________________________________________________________________________________________
dense_20 (Dense)                (None, 1)            65          dropout_10[0][0]                 
==================================================================================================
Total params: 84,417
Trainable params: 84,417
Non-trainable params: 0
__________________________________________________________________________________________________
Confusion matrix: [[1531  469]
 [ 337 1663]]
Recall: 81.95931477516059
Precision: 76.55
Classified acceptor_data
…
Mean: 77.745, Std: 0.5168171823768998

This took 112.12159061431885 seconds.


-------------------------------------------------------------------------------

repDNA: PC-PseTNC BINARY CLASSIFICATION APPROACH
Data shape: (40000, 66, 1)
Epochs: 10, Batch size: 500
Model: "model_10"
__________________________________________________________________________________________________
Layer (type)                    Output Shape         Param #     Connected to                     
==================================================================================================
input_10 (InputLayer)           (None, 66, 1)        0                                            
__________________________________________________________________________________________________
conv1d_19 (Conv1D)              (None, 64, 32)       128         input_10[0][0]                   
__________________________________________________________________________________________________
conv1d_20 (Conv1D)              (None, 62, 32)       192         input_10[0][0]                   
__________________________________________________________________________________________________
concatenate_10 (Concatenate)    (None, 126, 32)      0           conv1d_19[0][0]                  
                                                                 conv1d_20[0][0]                  
__________________________________________________________________________________________________
flatten_10 (Flatten)            (None, 4032)         0           concatenate_10[0][0]             
__________________________________________________________________________________________________
dense_19 (Dense)                (None, 64)           258112      flatten_10[0][0]                 
__________________________________________________________________________________________________
dropout_10 (Dropout)            (None, 64)           0           dense_19[0][0]                   
__________________________________________________________________________________________________
dense_20 (Dense)                (None, 1)            65          dropout_10[0][0]                 
==================================================================================================
Total params: 258,497
Trainable params: 258,497
Non-trainable params: 0
__________________________________________________________________________________________________
Confusion matrix: [[1553  447]
 [ 305 1695]]
Recall: 83.58449946178686
Precision: 77.64999999999999
…
Mean: 80.65, Std: 0.5734762418792954

This took 105.78944730758667 seconds.


-------------------------------------------------------------------------------

repDNA: PC-PseDNC BINARY CLASSIFICATION APPROACH
Data shape: (40000, 18, 1)
Epochs: 10, Batch size: 500
Model: "model_10"
__________________________________________________________________________________________________
Layer (type)                    Output Shape         Param #     Connected to                     
==================================================================================================
input_10 (InputLayer)           (None, 18, 1)        0                                            
__________________________________________________________________________________________________
conv1d_28 (Conv1D)              (None, 16, 32)       128         input_10[0][0]                   
__________________________________________________________________________________________________
conv1d_29 (Conv1D)              (None, 15, 32)       160         input_10[0][0]                   
__________________________________________________________________________________________________
conv1d_30 (Conv1D)              (None, 14, 32)       192         input_10[0][0]                   
__________________________________________________________________________________________________
concatenate_10 (Concatenate)    (None, 45, 32)       0           conv1d_28[0][0]                  
                                                                 conv1d_29[0][0]                  
                                                                 conv1d_30[0][0]                  
__________________________________________________________________________________________________
flatten_10 (Flatten)            (None, 1440)         0           concatenate_10[0][0]             
__________________________________________________________________________________________________
dense_19 (Dense)                (None, 64)           92224       flatten_10[0][0]                 
__________________________________________________________________________________________________
dropout_10 (Dropout)            (None, 64)           0           dense_19[0][0]                   
__________________________________________________________________________________________________
dense_20 (Dense)                (None, 1)            65          dropout_10[0][0]                 
==================================================================================================
Total params: 92,769
Trainable params: 92,769
Non-trainable params: 0
__________________________________________________________________________________________________
Confusion matrix: [[1536  464]
 [ 385 1615]]
Recall: 79.9583550234253
Precision: 76.8
Classified acceptor_data
…
Mean: 80.73749999999998, Std: 0.6240242383113007

This took 107.03601622581482 seconds.


-------------------------------------------------------------------------------

repDNA: SC-PseDNC BINARY CLASSIFICATION APPROACH
Data shape: (40000, 92, 1)
Epochs: 10, Batch size: 500
Model: "model_10"
__________________________________________________________________________________________________
Layer (type)                    Output Shape         Param #     Connected to                     
==================================================================================================
input_10 (InputLayer)           (None, 92, 1)        0                                            
__________________________________________________________________________________________________
conv1d_19 (Conv1D)              (None, 90, 32)       128         input_10[0][0]                   
__________________________________________________________________________________________________
conv1d_20 (Conv1D)              (None, 88, 32)       192         input_10[0][0]                   
__________________________________________________________________________________________________
concatenate_10 (Concatenate)    (None, 178, 32)      0           conv1d_19[0][0]                  
                                                                 conv1d_20[0][0]                  
__________________________________________________________________________________________________
flatten_10 (Flatten)            (None, 5696)         0           concatenate_10[0][0]             
__________________________________________________________________________________________________
dense_19 (Dense)                (None, 64)           364608      flatten_10[0][0]                 
__________________________________________________________________________________________________
dropout_10 (Dropout)            (None, 64)           0           dense_19[0][0]                   
__________________________________________________________________________________________________
dense_20 (Dense)                (None, 1)            65          dropout_10[0][0]                 
==================================================================================================
Total params: 364,993
Trainable params: 364,993
Non-trainable params: 0
__________________________________________________________________________________________________
Confusion matrix: [[1495  505]
 [ 341 1659]]
Recall: 81.42701525054467
Precision: 74.75
…
Mean: 77.6275, Std: 0.8615719644928113

This took 141.39524626731873 seconds.


-------------------------------------------------------------------------------

repDNA: SC-PseTNC BINARY CLASSIFICATION APPROACH
Data shape: (40000, 88, 1)
Epochs: 10, Batch size: 500
Model: "model_10"
__________________________________________________________________________________________________
Layer (type)                    Output Shape         Param #     Connected to                     
==================================================================================================
input_10 (InputLayer)           (None, 88, 1)        0                                            
__________________________________________________________________________________________________
conv1d_28 (Conv1D)              (None, 86, 32)       128         input_10[0][0]                   
__________________________________________________________________________________________________
conv1d_29 (Conv1D)              (None, 85, 32)       160         input_10[0][0]                   
__________________________________________________________________________________________________
conv1d_30 (Conv1D)              (None, 84, 32)       192         input_10[0][0]                   
__________________________________________________________________________________________________
concatenate_10 (Concatenate)    (None, 255, 32)      0           conv1d_28[0][0]                  
                                                                 conv1d_29[0][0]                  
                                                                 conv1d_30[0][0]                  
__________________________________________________________________________________________________
flatten_10 (Flatten)            (None, 8160)         0           concatenate_10[0][0]             
__________________________________________________________________________________________________
dense_19 (Dense)                (None, 64)           522304      flatten_10[0][0]                 
__________________________________________________________________________________________________
dropout_10 (Dropout)            (None, 64)           0           dense_19[0][0]                   
__________________________________________________________________________________________________
dense_20 (Dense)                (None, 1)            65          dropout_10[0][0]                 
==================================================================================================
Total params: 522,849
Trainable params: 522,849
Non-trainable params: 0
__________________________________________________________________________________________________
Confusion matrix: [[1539  461]
 [ 294 1706]]
Recall: 83.9607201309329
Precision: 76.95
…
Mean: 80.725, Std: 0.5642472862141229

This took 168.42613768577576 seconds.


-------------------------------------------------------------------------------

repDNA: PC-PseTNC BINARY CLASSIFICATION APPROACH
Data shape: (40000, 66, 1)
Epochs: 10, Batch size: 500
Model: "model_10"
__________________________________________________________________________________________________
Layer (type)                    Output Shape         Param #     Connected to                     
==================================================================================================
input_10 (InputLayer)           (None, 66, 1)        0                                            
__________________________________________________________________________________________________
conv1d_28 (Conv1D)              (None, 64, 32)       128         input_10[0][0]                   
__________________________________________________________________________________________________
conv1d_29 (Conv1D)              (None, 63, 32)       160         input_10[0][0]                   
__________________________________________________________________________________________________
conv1d_30 (Conv1D)              (None, 62, 32)       192         input_10[0][0]                   
__________________________________________________________________________________________________
concatenate_10 (Concatenate)    (None, 189, 32)      0           conv1d_28[0][0]                  
                                                                 conv1d_29[0][0]                  
                                                                 conv1d_30[0][0]                  
__________________________________________________________________________________________________
flatten_10 (Flatten)            (None, 6048)         0           concatenate_10[0][0]             
__________________________________________________________________________________________________
dense_19 (Dense)                (None, 64)           387136      flatten_10[0][0]                 
__________________________________________________________________________________________________
dropout_10 (Dropout)            (None, 64)           0           dense_19[0][0]                   
__________________________________________________________________________________________________
dense_20 (Dense)                (None, 1)            65          dropout_10[0][0]                 
==================================================================================================
Total params: 387,681
Trainable params: 387,681
Non-trainable params: 0
__________________________________________________________________________________________________
Confusion matrix: [[1534  466]
 [ 296 1704]]
Recall: 83.82513661202185
Precision: 76.7
…
Mean: 77.97749999999999, Std: 0.6628018180421658

This took 158.55292797088623 seconds.


-------------------------------------------------------------------------------

repDNA: SC-PseDNC BINARY CLASSIFICATION APPROACH
Data shape: (40000, 92, 1)
Epochs: 10, Batch size: 500
Model: "model_10"
__________________________________________________________________________________________________
Layer (type)                    Output Shape         Param #     Connected to                     
==================================================================================================
input_10 (InputLayer)           (None, 92, 1)        0                                            
__________________________________________________________________________________________________
conv1d_28 (Conv1D)              (None, 90, 32)       128         input_10[0][0]                   
__________________________________________________________________________________________________
conv1d_29 (Conv1D)              (None, 89, 32)       160         input_10[0][0]                   
__________________________________________________________________________________________________
conv1d_30 (Conv1D)              (None, 88, 32)       192         input_10[0][0]                   
__________________________________________________________________________________________________
concatenate_10 (Concatenate)    (None, 267, 32)      0           conv1d_28[0][0]                  
                                                                 conv1d_29[0][0]                  
                                                                 conv1d_30[0][0]                  
__________________________________________________________________________________________________
flatten_10 (Flatten)            (None, 8544)         0           concatenate_10[0][0]             
__________________________________________________________________________________________________
dense_19 (Dense)                (None, 64)           546880      flatten_10[0][0]                 
__________________________________________________________________________________________________
dropout_10 (Dropout)            (None, 64)           0           dense_19[0][0]                   
__________________________________________________________________________________________________
dense_20 (Dense)                (None, 1)            65          dropout_10[0][0]                 
==================================================================================================
Total params: 547,425
Trainable params: 547,425
Non-trainable params: 0
__________________________________________________________________________________________________
Confusion matrix: [[1481  519]
 [ 315 1685]]
Recall: 82.46102449888642
Precision: 74.05000000000001
…
Mean: 77.36999999999999, Std: 0.5833952348108431

This took 209.47483038902283 seconds.


-------------------------------------------------------------------------------

BINARY CLASSIFICATION APPROACH
Data shape: (200000, 602, 4, 1)
Epochs: 5, Batch size: 200
Model: "model_10"
__________________________________________________________________________________________________
Layer (type)                    Output Shape         Param #     Connected to                     
==================================================================================================
input_10 (InputLayer)           (None, 602, 4, 1)    0                                            
__________________________________________________________________________________________________
conv2d_55 (Conv2D)              (None, 601, 1, 32)   288         input_10[0][0]                   
__________________________________________________________________________________________________
conv2d_56 (Conv2D)              (None, 600, 1, 32)   416         input_10[0][0]                   
__________________________________________________________________________________________________
conv2d_57 (Conv2D)              (None, 599, 1, 32)   544         input_10[0][0]                   
__________________________________________________________________________________________________
conv2d_58 (Conv2D)              (None, 598, 1, 32)   672         input_10[0][0]                   
__________________________________________________________________________________________________
conv2d_59 (Conv2D)              (None, 597, 1, 32)   800         input_10[0][0]                   
__________________________________________________________________________________________________
conv2d_60 (Conv2D)              (None, 596, 1, 32)   928         input_10[0][0]                   
__________________________________________________________________________________________________
max_pooling2d_55 (MaxPooling2D) (None, 300, 1, 32)   0           conv2d_55[0][0]                  
__________________________________________________________________________________________________
max_pooling2d_56 (MaxPooling2D) (None, 300, 1, 32)   0           conv2d_56[0][0]                  
__________________________________________________________________________________________________
max_pooling2d_57 (MaxPooling2D) (None, 299, 1, 32)   0           conv2d_57[0][0]                  
__________________________________________________________________________________________________
max_pooling2d_58 (MaxPooling2D) (None, 299, 1, 32)   0           conv2d_58[0][0]                  
__________________________________________________________________________________________________
max_pooling2d_59 (MaxPooling2D) (None, 298, 1, 32)   0           conv2d_59[0][0]                  
__________________________________________________________________________________________________
max_pooling2d_60 (MaxPooling2D) (None, 298, 1, 32)   0           conv2d_60[0][0]                  
__________________________________________________________________________________________________
concatenate_10 (Concatenate)    (None, 1794, 1, 32)  0           max_pooling2d_55[0][0]           
                                                                 max_pooling2d_56[0][0]           
                                                                 max_pooling2d_57[0][0]           
                                                                 max_pooling2d_58[0][0]           
                                                                 max_pooling2d_59[0][0]           
                                                                 max_pooling2d_60[0][0]           
__________________________________________________________________________________________________
flatten_10 (Flatten)            (None, 57408)        0           concatenate_10[0][0]             
__________________________________________________________________________________________________
dense_28 (Dense)                (None, 128)          7348352     flatten_10[0][0]                 
__________________________________________________________________________________________________
dropout_19 (Dropout)            (None, 128)          0           dense_28[0][0]                   
__________________________________________________________________________________________________
dense_29 (Dense)                (None, 128)          16512       dropout_19[0][0]                 
__________________________________________________________________________________________________
dropout_20 (Dropout)            (None, 128)          0           dense_29[0][0]                   
__________________________________________________________________________________________________
dense_30 (Dense)                (None, 1)            129         dropout_20[0][0]                 
==================================================================================================
Total params: 7,368,641
Trainable params: 7,368,641
Non-trainable params: 0
__________________________________________________________________________________________________
Confusion matrix: [[9561  439]
 [ 688 9312]]
Recall: 93.28714996585032
Precision: 95.61
…
Mean: 95.3155, Std: 0.1592395993463956

This took 6621.6086592674255 seconds.


-------------------------------------------------------------------------------

DiProDB: BINARY CLASSIFICATION APPROACH
Data shape: (200000, 601, 15, 1)
Epochs: 5, Batch size: 200
Model: "model_10"
__________________________________________________________________________________________________
Layer (type)                    Output Shape         Param #     Connected to                     
==================================================================================================
input_10 (InputLayer)           (None, 601, 15, 1)   0                                            
__________________________________________________________________________________________________
conv2d_19 (Conv2D)              (None, 599, 1, 32)   1472        input_10[0][0]                   
__________________________________________________________________________________________________
conv2d_20 (Conv2D)              (None, 598, 1, 32)   1952        input_10[0][0]                   
__________________________________________________________________________________________________
concatenate_10 (Concatenate)    (None, 1197, 1, 32)  0           conv2d_19[0][0]                  
                                                                 conv2d_20[0][0]                  
__________________________________________________________________________________________________
flatten_10 (Flatten)            (None, 38304)        0           concatenate_10[0][0]             
__________________________________________________________________________________________________
dense_28 (Dense)                (None, 128)          4903040     flatten_10[0][0]                 
__________________________________________________________________________________________________
dropout_19 (Dropout)            (None, 128)          0           dense_28[0][0]                   
__________________________________________________________________________________________________
dense_29 (Dense)                (None, 128)          16512       dropout_19[0][0]                 
__________________________________________________________________________________________________
dropout_20 (Dropout)            (None, 128)          0           dense_29[0][0]                   
__________________________________________________________________________________________________
dense_30 (Dense)                (None, 1)            129         dropout_20[0][0]                 
==================================================================================================
Total params: 4,923,105
Trainable params: 4,923,105
Non-trainable params: 0
__________________________________________________________________________________________________
Confusion matrix: [[9560  440]
 [ 581 9419]]
Recall: 94.27078197416428
Precision: 95.6
…
Confusion matrix: [[9686  314]
 [ 578 9422]]
Recall: 94.36866718628215
Precision: 96.86
Classified donor_data
Mean: 85.86699999999999, Std: 17.951681564689142

This took 3215.5215158462524 seconds.


-------------------------------------------------------------------------------

repDNA: IDKMER BINARY CLASSIFICATION APPROACH
Data shape: (40000, 6, 1)
Epochs: 10, Batch size: 500
Model: "model_10"
_________________________________________________________________
Layer (type)                 Output Shape              Param #   
=================================================================
input_10 (InputLayer)        (None, 6, 1)              0         
_________________________________________________________________
conv1d_10 (Conv1D)           (None, 3, 32)             160       
_________________________________________________________________
flatten_10 (Flatten)         (None, 96)                0         
_________________________________________________________________
dense_19 (Dense)             (None, 64)                6208      
_________________________________________________________________
dropout_10 (Dropout)         (None, 64)                0         
_________________________________________________________________
dense_20 (Dense)             (None, 1)                 65        
=================================================================
Total params: 6,433
Trainable params: 6,433
Non-trainable params: 0
_________________________________________________________________
Confusion matrix: [[1429  571]
 [ 392 1608]]
Recall: 78.47336628226249
Precision: 71.45
Classified acceptor_data
Mean: 75.37499999999999, Std: 0.8300602387778863

This took 50.94940447807312 seconds.


-------------------------------------------------------------------------------

repDNA: IDKMER BINARY CLASSIFICATION APPROACH
Data shape: (40000, 6, 1)
Epochs: 10, Batch size: 500
Model: "model_10"
_________________________________________________________________
Layer (type)                 Output Shape              Param #   
=================================================================
input_10 (InputLayer)        (None, 6, 1)              0         
_________________________________________________________________
conv1d_10 (Conv1D)           (None, 3, 32)             160       
_________________________________________________________________
flatten_10 (Flatten)         (None, 96)                0         
_________________________________________________________________
dense_19 (Dense)             (None, 64)                6208      
_________________________________________________________________
dropout_10 (Dropout)         (None, 64)                0         
_________________________________________________________________
dense_20 (Dense)             (None, 1)                 65        
=================================================================
Total params: 6,433
Trainable params: 6,433
Non-trainable params: 0
_________________________________________________________________
Confusion matrix: [[1430  570]
 [ 394 1606]]
Recall: 78.39912280701753
Precision: 71.5
Classified acceptor_data
Mean: 75.35, Std: 0.8089344843681744

This took 50.65494132041931 seconds.


-------------------------------------------------------------------------------

repDNA: IDKMER BINARY CLASSIFICATION APPROACH
Data shape: (40000, 6, 1)
Epochs: 10, Batch size: 500
Model: "model_20"
_________________________________________________________________
Layer (type)                 Output Shape              Param #   
=================================================================
input_20 (InputLayer)        (None, 6, 1)              0         
_________________________________________________________________
conv1d_20 (Conv1D)           (None, 3, 32)             160       
_________________________________________________________________
flatten_20 (Flatten)         (None, 96)                0         
_________________________________________________________________
dense_39 (Dense)             (None, 64)                6208      
_________________________________________________________________
dropout_20 (Dropout)         (None, 64)                0         
_________________________________________________________________
dense_40 (Dense)             (None, 1)                 65        
=================================================================
Total params: 6,433
Trainable params: 6,433
Non-trainable params: 0
_________________________________________________________________
Confusion matrix: [[1390  610]
 [ 426 1574]]
Recall: 76.54185022026432
Precision: 69.5
Classified donor_data
Mean: 73.2225, Std: 0.6643088513635795

This took 64.97209024429321 seconds.


-------------------------------------------------------------------------------

repDNA: IDKMER BINARY CLASSIFICATION APPROACH
Data shape: (40000, 6, 1)
Epochs: 10, Batch size: 500
Model: "model_10"
_________________________________________________________________
Layer (type)                 Output Shape              Param #   
=================================================================
input_10 (InputLayer)        (None, 6, 1)              0         
_________________________________________________________________
conv1d_10 (Conv1D)           (None, 3, 32)             160       
_________________________________________________________________
flatten_10 (Flatten)         (None, 96)                0         
_________________________________________________________________
dense_19 (Dense)             (None, 64)                6208      
_________________________________________________________________
dropout_10 (Dropout)         (None, 64)                0         
_________________________________________________________________
dense_20 (Dense)             (None, 1)                 65        
=================================================================
Total params: 6,433
Trainable params: 6,433
Non-trainable params: 0
_________________________________________________________________
Confusion matrix: [[1427  573]
 [ 390 1610]]
Recall: 78.53604843148047
Precision: 71.35000000000001
Classified acceptor_data
Mean: 75.37, Std: 0.8208836701993779

This took 119.03105020523071 seconds.


-------------------------------------------------------------------------------

repDNA: IDKMER BINARY CLASSIFICATION APPROACH
Data shape: (40000, 6, 1)
Epochs: 10, Batch size: 500
Model: "model_10"
_________________________________________________________________
Layer (type)                 Output Shape              Param #   
=================================================================
input_10 (InputLayer)        (None, 6, 1)              0         
_________________________________________________________________
conv1d_10 (Conv1D)           (None, 3, 32)             160       
_________________________________________________________________
flatten_10 (Flatten)         (None, 96)                0         
_________________________________________________________________
dense_19 (Dense)             (None, 64)                6208      
_________________________________________________________________
dropout_10 (Dropout)         (None, 64)                0         
_________________________________________________________________
dense_20 (Dense)             (None, 1)                 65        
=================================================================
Total params: 6,433
Trainable params: 6,433
Non-trainable params: 0
_________________________________________________________________
Confusion matrix: [[1391  609]
 [ 428 1572]]
Recall: 76.47058823529412
Precision: 69.55
Classified donor_data
Mean: 73.1975, Std: 0.678090148874029

This took 124.73662686347961 seconds.


-------------------------------------------------------------------------------
…
Mean: 77.465, Std: 0.6865857557508731

This took 478.1211459636688 seconds.


-------------------------------------------------------------------------------

OVERALL BINARY CLASSIFICATION APPROACH
Data shape: (40000, 602, 4)
Epochs: 10, Batch size: 100
Model: "model_10"
__________________________________________________________________________________________________
Layer (type)                    Output Shape         Param #     Connected to                     
==================================================================================================
simple_input_10 (InputLayer)    (None, 602, 4, 1)    0                                            
__________________________________________________________________________________________________
DAC_input_10 (InputLayer)       (None, 76, 1)        0                                            
__________________________________________________________________________________________________
DCC_input_10 (InputLayer)       (None, 1406, 1)      0                                            
__________________________________________________________________________________________________
simple_conv2d_55 (Conv2D)       (None, 601, 1, 32)   288         simple_input_10[0][0]            
__________________________________________________________________________________________________
simple_conv2d_56 (Conv2D)       (None, 600, 1, 32)   416         simple_input_10[0][0]            
__________________________________________________________________________________________________
simple_conv2d_57 (Conv2D)       (None, 599, 1, 32)   544         simple_input_10[0][0]            
__________________________________________________________________________________________________
simple_conv2d_58 (Conv2D)       (None, 598, 1, 32)   672         simple_input_10[0][0]            
__________________________________________________________________________________________________
simple_conv2d_59 (Conv2D)       (None, 597, 1, 32)   800         simple_input_10[0][0]            
__________________________________________________________________________________________________
simple_conv2d_60 (Conv2D)       (None, 596, 1, 32)   928         simple_input_10[0][0]            
__________________________________________________________________________________________________
DiProDB_input_10 (InputLayer)   (None, 601, 15, 1)   0                                            
__________________________________________________________________________________________________
DAC_conv1d_19 (Conv1D)          (None, 74, 32)       128         DAC_input_10[0][0]               
__________________________________________________________________________________________________
DAC_conv1d_20 (Conv1D)          (None, 72, 32)       192         DAC_input_10[0][0]               
__________________________________________________________________________________________________
DCC_conv1d_19 (Conv1D)          (None, 1404, 32)     128         DCC_input_10[0][0]               
__________________________________________________________________________________________________
DCC_conv1d_20 (Conv1D)          (None, 1402, 32)     192         DCC_input_10[0][0]               
__________________________________________________________________________________________________
PC_PseDNC_input_10 (InputLayer) (None, 18, 1)        0                                            
__________________________________________________________________________________________________
PC_PseTNC_input_10 (InputLayer) (None, 66, 1)        0                                            
__________________________________________________________________________________________________
SC_PseDNC_input_10 (InputLayer) (None, 92, 1)        0                                            
__________________________________________________________________________________________________
SC_PseTNC_input_10 (InputLayer) (None, 88, 1)        0                                            
__________________________________________________________________________________________________
…
simple_dense_29 (Dense)         (None, 128)          16512       simple_dropout_19[0][0]          
__________________________________________________________________________________________________
DiProDB_dense_29 (Dense)        (None, 128)          16512       DiProDB_dropout_19[0][0]         
__________________________________________________________________________________________________
simple_dropout_20 (Dropout)     (None, 128)          0           simple_dense_29[0][0]            
__________________________________________________________________________________________________
DiProDB_dropout_20 (Dropout)    (None, 128)          0           DiProDB_dense_29[0][0]           
__________________________________________________________________________________________________
simple_dense_30 (Dense)         (None, 1)            129         simple_dropout_20[0][0]          
__________________________________________________________________________________________________
DiProDB_dense_30 (Dense)        (None, 1)            129         DiProDB_dropout_20[0][0]         
__________________________________________________________________________________________________
concatenate_10 (Concatenate)    (None, 2)            0           simple_dense_30[0][0]            
                                                                 DiProDB_dense_30[0][0]           
__________________________________________________________________________________________________
dense_19 (Dense)                (None, 4)            12          concatenate_10[0][0]             
__________________________________________________________________________________________________
dense_20 (Dense)                (None, 1)            5           dense_19[0][0]                   
==================================================================================================
Total params: 12,291,763
Trainable params: 17
Non-trainable params: 12,291,746
__________________________________________________________________________________________________
Confusion matrix: [[1962   38]
 [  67 1933]]
Recall: 96.69788072942336
Precision: 98.1
…
Mean: 97.6775, Std: 0.18756665481902735

This took 2461.458996295929 seconds.


-------------------------------------------------------------------------------

OVERALL BINARY CLASSIFICATION APPROACH
Data shape: (40000, 602, 4)
Epochs: 15, Batch size: 100
Model: "model_10"
__________________________________________________________________________________________________
Layer (type)                    Output Shape         Param #     Connected to                     
==================================================================================================
simple_input_10 (InputLayer)    (None, 602, 4, 1)    0                                            
__________________________________________________________________________________________________
simple_conv2d_55 (Conv2D)       (None, 601, 1, 32)   288         simple_input_10[0][0]            
__________________________________________________________________________________________________
simple_conv2d_56 (Conv2D)       (None, 600, 1, 32)   416         simple_input_10[0][0]            
__________________________________________________________________________________________________
simple_conv2d_57 (Conv2D)       (None, 599, 1, 32)   544         simple_input_10[0][0]            
__________________________________________________________________________________________________
simple_conv2d_58 (Conv2D)       (None, 598, 1, 32)   672         simple_input_10[0][0]            
__________________________________________________________________________________________________
simple_conv2d_59 (Conv2D)       (None, 597, 1, 32)   800         simple_input_10[0][0]            
__________________________________________________________________________________________________
simple_conv2d_60 (Conv2D)       (None, 596, 1, 32)   928         simple_input_10[0][0]            
__________________________________________________________________________________________________
DiProDB_input_10 (InputLayer)   (None, 601, 15, 1)   0                                            
__________________________________________________________________________________________________
simple_max_pooling2d_55 (MaxPoo (None, 300, 1, 32)   0           simple_conv2d_55[0][0]           
__________________________________________________________________________________________________
simple_max_pooling2d_56 (MaxPoo (None, 300, 1, 32)   0           simple_conv2d_56[0][0]           
__________________________________________________________________________________________________
simple_max_pooling2d_57 (MaxPoo (None, 299, 1, 32)   0           simple_conv2d_57[0][0]           
__________________________________________________________________________________________________
simple_max_pooling2d_58 (MaxPoo (None, 299, 1, 32)   0           simple_conv2d_58[0][0]           
__________________________________________________________________________________________________
simple_max_pooling2d_59 (MaxPoo (None, 298, 1, 32)   0           simple_conv2d_59[0][0]           
__________________________________________________________________________________________________
simple_max_pooling2d_60 (MaxPoo (None, 298, 1, 32)   0           simple_conv2d_60[0][0]           
__________________________________________________________________________________________________
DiProDB_conv2d_19 (Conv2D)      (None, 599, 1, 32)   1472        DiProDB_input_10[0][0]           
__________________________________________________________________________________________________
DiProDB_conv2d_20 (Conv2D)      (None, 598, 1, 32)   1952        DiProDB_input_10[0][0]           
__________________________________________________________________________________________________
simple_concatenate_10 (Concaten (None, 1794, 1, 32)  0           simple_max_pooling2d_55[0][0]    
                                                                 simple_max_pooling2d_56[0][0]    
                                                                 simple_max_pooling2d_57[0][0]    
                                                                 simple_max_pooling2d_58[0][0]    
                                                                 simple_max_pooling2d_59[0][0]    
                                                                 simple_max_pooling2d_60[0][0]    
__________________________________________________________________________________________________
DiProDB_concatenate_10 (Concate (None, 1197, 1, 32)  0           DiProDB_conv2d_19[0][0]          
                                                                 DiProDB_conv2d_20[0][0]          
__________________________________________________________________________________________________
simple_flatten_10 (Flatten)     (None, 57408)        0           simple_concatenate_10[0][0]      
__________________________________________________________________________________________________
DiProDB_flatten_10 (Flatten)    (None, 38304)        0           DiProDB_concatenate_10[0][0]     
__________________________________________________________________________________________________
IDkmer_input_10 (InputLayer)    (None, 6, 1)         0                                            
__________________________________________________________________________________________________
simple_dense_28 (Dense)         (None, 128)          7348352     simple_flatten_10[0][0]          
__________________________________________________________________________________________________
DiProDB_dense_28 (Dense)        (None, 128)          4903040     DiProDB_flatten_10[0][0]         
__________________________________________________________________________________________________
IDkmer_conv1d_10 (Conv1D)       (None, 3, 32)        160         IDkmer_input_10[0][0]            
__________________________________________________________________________________________________
simple_dropout_19 (Dropout)     (None, 128)          0           simple_dense_28[0][0]            
__________________________________________________________________________________________________
DiProDB_dropout_19 (Dropout)    (None, 128)          0           DiProDB_dense_28[0][0]           
__________________________________________________________________________________________________
IDkmer_flatten_10 (Flatten)     (None, 96)           0           IDkmer_conv1d_10[0][0]           
__________________________________________________________________________________________________
simple_dense_29 (Dense)         (None, 128)          16512       simple_dropout_19[0][0]          
__________________________________________________________________________________________________
DiProDB_dense_29 (Dense)        (None, 128)          16512       DiProDB_dropout_19[0][0]         
__________________________________________________________________________________________________
IDkmer_dense_19 (Dense)         (None, 64)           6208        IDkmer_flatten_10[0][0]          
__________________________________________________________________________________________________
simple_dropout_20 (Dropout)     (None, 128)          0           simple_dense_29[0][0]            
__________________________________________________________________________________________________
DiProDB_dropout_20 (Dropout)    (None, 128)          0           DiProDB_dense_29[0][0]           
__________________________________________________________________________________________________
IDkmer_dropout_10 (Dropout)     (None, 64)           0           IDkmer_dense_19[0][0]            
__________________________________________________________________________________________________
simple_dense_30 (Dense)         (None, 1)            129         simple_dropout_20[0][0]          
__________________________________________________________________________________________________
DiProDB_dense_30 (Dense)        (None, 1)            129         DiProDB_dropout_20[0][0]         
__________________________________________________________________________________________________
IDkmer_dense_20 (Dense)         (None, 1)            65          IDkmer_dropout_10[0][0]          
__________________________________________________________________________________________________
concatenate_10 (Concatenate)    (None, 3)            0           simple_dense_30[0][0]            
                                                                 DiProDB_dense_30[0][0]           
                                                                 IDkmer_dense_20[0][0]            
__________________________________________________________________________________________________
dense_19 (Dense)                (None, 4)            16          concatenate_10[0][0]             
__________________________________________________________________________________________________
dense_20 (Dense)                (None, 1)            5           dense_19[0][0]                   
==================================================================================================
Total params: 12,298,200
Trainable params: 21
Non-trainable params: 12,298,179
__________________________________________________________________________________________________
Confusion matrix: [[1962   38]
 [  67 1933]]
Recall: 96.69788072942336
Precision: 98.1
…
Mean: 97.685, Std: 0.18513508581573837

This took 2679.8754398822784 seconds.


-------------------------------------------------------------------------------

OVERALL BINARY CLASSIFICATION APPROACH
Data shape: (40000, 602, 4)
Epochs: 25, Batch size: 100
Model: "model_10"
__________________________________________________________________________________________________
Layer (type)                    Output Shape         Param #     Connected to                     
==================================================================================================
simple_input_10 (InputLayer)    (None, 602, 4, 1)    0                                            
__________________________________________________________________________________________________
simple_conv2d_55 (Conv2D)       (None, 601, 1, 32)   288         simple_input_10[0][0]            
__________________________________________________________________________________________________
simple_conv2d_56 (Conv2D)       (None, 600, 1, 32)   416         simple_input_10[0][0]            
__________________________________________________________________________________________________
simple_conv2d_57 (Conv2D)       (None, 599, 1, 32)   544         simple_input_10[0][0]            
__________________________________________________________________________________________________
simple_conv2d_58 (Conv2D)       (None, 598, 1, 32)   672         simple_input_10[0][0]            
__________________________________________________________________________________________________
simple_conv2d_59 (Conv2D)       (None, 597, 1, 32)   800         simple_input_10[0][0]            
__________________________________________________________________________________________________
simple_conv2d_60 (Conv2D)       (None, 596, 1, 32)   928         simple_input_10[0][0]            
__________________________________________________________________________________________________
DiProDB_input_10 (InputLayer)   (None, 601, 15, 1)   0                                            
__________________________________________________________________________________________________
simple_max_pooling2d_55 (MaxPoo (None, 300, 1, 32)   0           simple_conv2d_55[0][0]           
__________________________________________________________________________________________________
simple_max_pooling2d_56 (MaxPoo (None, 300, 1, 32)   0           simple_conv2d_56[0][0]           
__________________________________________________________________________________________________
simple_max_pooling2d_57 (MaxPoo (None, 299, 1, 32)   0           simple_conv2d_57[0][0]           
__________________________________________________________________________________________________
simple_max_pooling2d_58 (MaxPoo (None, 299, 1, 32)   0           simple_conv2d_58[0][0]           
__________________________________________________________________________________________________
simple_max_pooling2d_59 (MaxPoo (None, 298, 1, 32)   0           simple_conv2d_59[0][0]           
__________________________________________________________________________________________________
simple_max_pooling2d_60 (MaxPoo (None, 298, 1, 32)   0           simple_conv2d_60[0][0]           
__________________________________________________________________________________________________
DiProDB_conv2d_19 (Conv2D)      (None, 599, 1, 32)   1472        DiProDB_input_10[0][0]           
__________________________________________________________________________________________________
DiProDB_conv2d_20 (Conv2D)      (None, 598, 1, 32)   1952        DiProDB_input_10[0][0]           
__________________________________________________________________________________________________
simple_concatenate_10 (Concaten (None, 1794, 1, 32)  0           simple_max_pooling2d_55[0][0]    
                                                                 simple_max_pooling2d_56[0][0]    
                                                                 simple_max_pooling2d_57[0][0]    
                                                                 simple_max_pooling2d_58[0][0]    
                                                                 simple_max_pooling2d_59[0][0]    
                                                                 simple_max_pooling2d_60[0][0]    
__________________________________________________________________________________________________
DiProDB_concatenate_10 (Concate (None, 1197, 1, 32)  0           DiProDB_conv2d_19[0][0]          
                                                                 DiProDB_conv2d_20[0][0]          
__________________________________________________________________________________________________
PC_PseDNC_input_10 (InputLayer) (None, 18, 1)        0                                            
__________________________________________________________________________________________________
PC_PseTNC_input_10 (InputLayer) (None, 66, 1)        0                                            
__________________________________________________________________________________________________
SC_PseDNC_input_10 (InputLayer) (None, 92, 1)        0                                            
__________________________________________________________________________________________________
SC_PseTNC_input_10 (InputLayer) (None, 88, 1)        0                                            
__________________________________________________________________________________________________
simple_flatten_10 (Flatten)     (None, 57408)        0           simple_concatenate_10[0][0]      
__________________________________________________________________________________________________
DiProDB_flatten_10 (Flatten)    (None, 38304)        0           DiProDB_concatenate_10[0][0]     
__________________________________________________________________________________________________
IDkmer_input_10 (InputLayer)    (None, 6, 1)         0                                            
__________________________________________________________________________________________________
PC_PseDNC_conv1d_28 (Conv1D)    (None, 16, 32)       128         PC_PseDNC_input_10[0][0]         
__________________________________________________________________________________________________
PC_PseDNC_conv1d_29 (Conv1D)    (None, 15, 32)       160         PC_PseDNC_input_10[0][0]         
__________________________________________________________________________________________________
PC_PseDNC_conv1d_30 (Conv1D)    (None, 14, 32)       192         PC_PseDNC_input_10[0][0]         
__________________________________________________________________________________________________
PC_PseTNC_conv1d_28 (Conv1D)    (None, 64, 32)       128         PC_PseTNC_input_10[0][0]         
__________________________________________________________________________________________________
PC_PseTNC_conv1d_29 (Conv1D)    (None, 63, 32)       160         PC_PseTNC_input_10[0][0]         
__________________________________________________________________________________________________
PC_PseTNC_conv1d_30 (Conv1D)    (None, 62, 32)       192         PC_PseTNC_input_10[0][0]         
__________________________________________________________________________________________________
SC_PseDNC_conv1d_28 (Conv1D)    (None, 90, 32)       128         SC_PseDNC_input_10[0][0]         
__________________________________________________________________________________________________
SC_PseDNC_conv1d_29 (Conv1D)    (None, 89, 32)       160         SC_PseDNC_input_10[0][0]         
__________________________________________________________________________________________________
SC_PseDNC_conv1d_30 (Conv1D)    (None, 88, 32)       192         SC_PseDNC_input_10[0][0]         
__________________________________________________________________________________________________
SC_PseTNC_conv1d_28 (Conv1D)    (None, 86, 32)       128         SC_PseTNC_input_10[0][0]         
__________________________________________________________________________________________________
SC_PseTNC_conv1d_29 (Conv1D)    (None, 85, 32)       160         SC_PseTNC_input_10[0][0]         
__________________________________________________________________________________________________
SC_PseTNC_conv1d_30 (Conv1D)    (None, 84, 32)       192         SC_PseTNC_input_10[0][0]         
__________________________________________________________________________________________________
simple_dense_28 (Dense)         (None, 128)          7348352     simple_flatten_10[0][0]          
__________________________________________________________________________________________________
DiProDB_dense_28 (Dense)        (None, 128)          4903040     DiProDB_flatten_10[0][0]         
__________________________________________________________________________________________________
IDkmer_conv1d_10 (Conv1D)       (None, 3, 32)        160         IDkmer_input_10[0][0]            
__________________________________________________________________________________________________
PC_PseDNC_concatenate_10 (Conca (None, 45, 32)       0           PC_PseDNC_conv1d_28[0][0]        
                                                                 PC_PseDNC_conv1d_29[0][0]        
                                                                 PC_PseDNC_conv1d_30[0][0]        
__________________________________________________________________________________________________
PC_PseTNC_concatenate_10 (Conca (None, 189, 32)      0           PC_PseTNC_conv1d_28[0][0]        
                                                                 PC_PseTNC_conv1d_29[0][0]        
                                                                 PC_PseTNC_conv1d_30[0][0]        
__________________________________________________________________________________________________
SC_PseDNC_concatenate_10 (Conca (None, 267, 32)      0           SC_PseDNC_conv1d_28[0][0]        
                                                                 SC_PseDNC_conv1d_29[0][0]        
                                                                 SC_PseDNC_conv1d_30[0][0]        
__________________________________________________________________________________________________
SC_PseTNC_concatenate_10 (Conca (None, 255, 32)      0           SC_PseTNC_conv1d_28[0][0]        
                                                                 SC_PseTNC_conv1d_29[0][0]        
                                                                 SC_PseTNC_conv1d_30[0][0]        
__________________________________________________________________________________________________
simple_dropout_19 (Dropout)     (None, 128)          0           simple_dense_28[0][0]            
__________________________________________________________________________________________________
DiProDB_dropout_19 (Dropout)    (None, 128)          0           DiProDB_dense_28[0][0]           
__________________________________________________________________________________________________
IDkmer_flatten_10 (Flatten)     (None, 96)           0           IDkmer_conv1d_10[0][0]           
__________________________________________________________________________________________________
PC_PseDNC_flatten_10 (Flatten)  (None, 1440)         0           PC_PseDNC_concatenate_10[0][0]   
__________________________________________________________________________________________________
PC_PseTNC_flatten_10 (Flatten)  (None, 6048)         0           PC_PseTNC_concatenate_10[0][0]   
__________________________________________________________________________________________________
SC_PseDNC_flatten_10 (Flatten)  (None, 8544)         0           SC_PseDNC_concatenate_10[0][0]   
__________________________________________________________________________________________________
SC_PseTNC_flatten_10 (Flatten)  (None, 8160)         0           SC_PseTNC_concatenate_10[0][0]   
__________________________________________________________________________________________________
simple_dense_29 (Dense)         (None, 128)          16512       simple_dropout_19[0][0]          
__________________________________________________________________________________________________
DiProDB_dense_29 (Dense)        (None, 128)          16512       DiProDB_dropout_19[0][0]         
__________________________________________________________________________________________________
IDkmer_dense_19 (Dense)         (None, 64)           6208        IDkmer_flatten_10[0][0]          
__________________________________________________________________________________________________
PC_PseDNC_dense_19 (Dense)      (None, 64)           92224       PC_PseDNC_flatten_10[0][0]       
__________________________________________________________________________________________________
PC_PseTNC_dense_19 (Dense)      (None, 64)           387136      PC_PseTNC_flatten_10[0][0]       
__________________________________________________________________________________________________
SC_PseDNC_dense_19 (Dense)      (None, 64)           546880      SC_PseDNC_flatten_10[0][0]       
__________________________________________________________________________________________________
SC_PseTNC_dense_19 (Dense)      (None, 64)           522304      SC_PseTNC_flatten_10[0][0]       
__________________________________________________________________________________________________
simple_dropout_20 (Dropout)     (None, 128)          0           simple_dense_29[0][0]            
__________________________________________________________________________________________________
DiProDB_dropout_20 (Dropout)    (None, 128)          0           DiProDB_dense_29[0][0]           
__________________________________________________________________________________________________
IDkmer_dropout_10 (Dropout)     (None, 64)           0           IDkmer_dense_19[0][0]            
__________________________________________________________________________________________________
PC_PseDNC_dropout_10 (Dropout)  (None, 64)           0           PC_PseDNC_dense_19[0][0]         
__________________________________________________________________________________________________
PC_PseTNC_dropout_10 (Dropout)  (None, 64)           0           PC_PseTNC_dense_19[0][0]         
__________________________________________________________________________________________________
SC_PseDNC_dropout_10 (Dropout)  (None, 64)           0           SC_PseDNC_dense_19[0][0]         
__________________________________________________________________________________________________
SC_PseTNC_dropout_10 (Dropout)  (None, 64)           0           SC_PseTNC_dense_19[0][0]         
__________________________________________________________________________________________________
simple_dense_30 (Dense)         (None, 1)            129         simple_dropout_20[0][0]          
__________________________________________________________________________________________________
DiProDB_dense_30 (Dense)        (None, 1)            129         DiProDB_dropout_20[0][0]         
__________________________________________________________________________________________________
IDkmer_dense_20 (Dense)         (None, 1)            65          IDkmer_dropout_10[0][0]          
__________________________________________________________________________________________________
PC_PseDNC_dense_20 (Dense)      (None, 1)            65          PC_PseDNC_dropout_10[0][0]       
__________________________________________________________________________________________________
PC_PseTNC_dense_20 (Dense)      (None, 1)            65          PC_PseTNC_dropout_10[0][0]       
__________________________________________________________________________________________________
SC_PseDNC_dense_20 (Dense)      (None, 1)            65          SC_PseDNC_dropout_10[0][0]       
__________________________________________________________________________________________________
SC_PseTNC_dense_20 (Dense)      (None, 1)            65          SC_PseTNC_dropout_10[0][0]       
__________________________________________________________________________________________________
concatenate_10 (Concatenate)    (None, 7)            0           simple_dense_30[0][0]            
                                                                 DiProDB_dense_30[0][0]           
                                                                 IDkmer_dense_20[0][0]            
                                                                 PC_PseDNC_dense_20[0][0]         
                                                                 PC_PseTNC_dense_20[0][0]         
                                                                 SC_PseDNC_dense_20[0][0]         
                                                                 SC_PseTNC_dense_20[0][0]         
__________________________________________________________________________________________________
dense_19 (Dense)                (None, 4)            32          concatenate_10[0][0]             
__________________________________________________________________________________________________
dense_20 (Dense)                (None, 1)            5           dense_19[0][0]                   
==================================================================================================
Total params: 13,848,940
Trainable params: 37
Non-trainable params: 13,848,903
__________________________________________________________________________________________________
Confusion matrix: [[1964   36]
 [  77 1923]]
Recall: 96.22733953944145
Precision: 98.2
…
Mean: 97.6425, Std: 0.20063960227233402

This took 3443.387246608734 seconds.


-------------------------------------------------------------------------------

OVERALL BINARY CLASSIFICATION APPROACH
Data shape: (40000, 602, 4)
Epochs: 15, Batch size: 200
Model: "model_10"
__________________________________________________________________________________________________
Layer (type)                    Output Shape         Param #     Connected to                     
==================================================================================================
simple_input_10 (InputLayer)    (None, 602, 4, 1)    0                                            
__________________________________________________________________________________________________
simple_conv2d_55 (Conv2D)       (None, 601, 1, 32)   288         simple_input_10[0][0]            
__________________________________________________________________________________________________
simple_conv2d_56 (Conv2D)       (None, 600, 1, 32)   416         simple_input_10[0][0]            
__________________________________________________________________________________________________
simple_conv2d_57 (Conv2D)       (None, 599, 1, 32)   544         simple_input_10[0][0]            
__________________________________________________________________________________________________
simple_conv2d_58 (Conv2D)       (None, 598, 1, 32)   672         simple_input_10[0][0]            
__________________________________________________________________________________________________
simple_conv2d_59 (Conv2D)       (None, 597, 1, 32)   800         simple_input_10[0][0]            
__________________________________________________________________________________________________
simple_conv2d_60 (Conv2D)       (None, 596, 1, 32)   928         simple_input_10[0][0]            
__________________________________________________________________________________________________
DiProDB_input_10 (InputLayer)   (None, 601, 15, 1)   0                                            
__________________________________________________________________________________________________
simple_max_pooling2d_55 (MaxPoo (None, 300, 1, 32)   0           simple_conv2d_55[0][0]           
__________________________________________________________________________________________________
simple_max_pooling2d_56 (MaxPoo (None, 300, 1, 32)   0           simple_conv2d_56[0][0]           
__________________________________________________________________________________________________
simple_max_pooling2d_57 (MaxPoo (None, 299, 1, 32)   0           simple_conv2d_57[0][0]           
__________________________________________________________________________________________________
simple_max_pooling2d_58 (MaxPoo (None, 299, 1, 32)   0           simple_conv2d_58[0][0]           
__________________________________________________________________________________________________
simple_max_pooling2d_59 (MaxPoo (None, 298, 1, 32)   0           simple_conv2d_59[0][0]           
__________________________________________________________________________________________________
simple_max_pooling2d_60 (MaxPoo (None, 298, 1, 32)   0           simple_conv2d_60[0][0]           
__________________________________________________________________________________________________
DiProDB_conv2d_19 (Conv2D)      (None, 599, 1, 32)   1472        DiProDB_input_10[0][0]           
__________________________________________________________________________________________________
DiProDB_conv2d_20 (Conv2D)      (None, 598, 1, 32)   1952        DiProDB_input_10[0][0]           
__________________________________________________________________________________________________
DAC_input_10 (InputLayer)       (None, 76, 1)        0                                            
__________________________________________________________________________________________________
DCC_input_10 (InputLayer)       (None, 1406, 1)      0                                            
__________________________________________________________________________________________________
simple_concatenate_10 (Concaten (None, 1794, 1, 32)  0           simple_max_pooling2d_55[0][0]    
                                                                 simple_max_pooling2d_56[0][0]    
                                                                 simple_max_pooling2d_57[0][0]    
                                                                 simple_max_pooling2d_58[0][0]    
                                                                 simple_max_pooling2d_59[0][0]    
                                                                 simple_max_pooling2d_60[0][0]    
__________________________________________________________________________________________________
DiProDB_concatenate_10 (Concate (None, 1197, 1, 32)  0           DiProDB_conv2d_19[0][0]          
                                                                 DiProDB_conv2d_20[0][0]          
__________________________________________________________________________________________________
DAC_conv1d_19 (Conv1D)          (None, 74, 32)       128         DAC_input_10[0][0]               
__________________________________________________________________________________________________
DAC_conv1d_20 (Conv1D)          (None, 72, 32)       192         DAC_input_10[0][0]               
__________________________________________________________________________________________________
DCC_conv1d_19 (Conv1D)          (None, 1404, 32)     128         DCC_input_10[0][0]               
__________________________________________________________________________________________________
DCC_conv1d_20 (Conv1D)          (None, 1402, 32)     192         DCC_input_10[0][0]               
__________________________________________________________________________________________________
PC_PseDNC_input_10 (InputLayer) (None, 18, 1)        0                                            
__________________________________________________________________________________________________
PC_PseTNC_input_10 (InputLayer) (None, 66, 1)        0                                            
__________________________________________________________________________________________________
SC_PseDNC_input_10 (InputLayer) (None, 92, 1)        0                                            
__________________________________________________________________________________________________
SC_PseTNC_input_10 (InputLayer) (None, 88, 1)        0                                            
__________________________________________________________________________________________________
simple_flatten_10 (Flatten)     (None, 57408)        0           simple_concatenate_10[0][0]      
__________________________________________________________________________________________________
DiProDB_flatten_10 (Flatten)    (None, 38304)        0           DiProDB_concatenate_10[0][0]     
__________________________________________________________________________________________________
IDkmer_input_10 (InputLayer)    (None, 6, 1)         0                                            
__________________________________________________________________________________________________
DAC_max_pooling1d_19 (MaxPoolin (None, 24, 32)       0           DAC_conv1d_19[0][0]              
__________________________________________________________________________________________________
DAC_max_pooling1d_20 (MaxPoolin (None, 24, 32)       0           DAC_conv1d_20[0][0]              
__________________________________________________________________________________________________
DCC_max_pooling1d_19 (MaxPoolin (None, 468, 32)      0           DCC_conv1d_19[0][0]              
__________________________________________________________________________________________________
DCC_max_pooling1d_20 (MaxPoolin (None, 467, 32)      0           DCC_conv1d_20[0][0]              
__________________________________________________________________________________________________
PC_PseDNC_conv1d_28 (Conv1D)    (None, 16, 32)       128         PC_PseDNC_input_10[0][0]         
__________________________________________________________________________________________________
PC_PseDNC_conv1d_29 (Conv1D)    (None, 15, 32)       160         PC_PseDNC_input_10[0][0]         
__________________________________________________________________________________________________
PC_PseDNC_conv1d_30 (Conv1D)    (None, 14, 32)       192         PC_PseDNC_input_10[0][0]         
__________________________________________________________________________________________________
PC_PseTNC_conv1d_28 (Conv1D)    (None, 64, 32)       128         PC_PseTNC_input_10[0][0]         
__________________________________________________________________________________________________
PC_PseTNC_conv1d_29 (Conv1D)    (None, 63, 32)       160         PC_PseTNC_input_10[0][0]         
__________________________________________________________________________________________________
PC_PseTNC_conv1d_30 (Conv1D)    (None, 62, 32)       192         PC_PseTNC_input_10[0][0]         
__________________________________________________________________________________________________
SC_PseDNC_conv1d_28 (Conv1D)    (None, 90, 32)       128         SC_PseDNC_input_10[0][0]         
__________________________________________________________________________________________________
SC_PseDNC_conv1d_29 (Conv1D)    (None, 89, 32)       160         SC_PseDNC_input_10[0][0]         
__________________________________________________________________________________________________
SC_PseDNC_conv1d_30 (Conv1D)    (None, 88, 32)       192         SC_PseDNC_input_10[0][0]         
__________________________________________________________________________________________________
SC_PseTNC_conv1d_28 (Conv1D)    (None, 86, 32)       128         SC_PseTNC_input_10[0][0]         
__________________________________________________________________________________________________
SC_PseTNC_conv1d_29 (Conv1D)    (None, 85, 32)       160         SC_PseTNC_input_10[0][0]         
__________________________________________________________________________________________________
SC_PseTNC_conv1d_30 (Conv1D)    (None, 84, 32)       192         SC_PseTNC_input_10[0][0]         
__________________________________________________________________________________________________
simple_dense_28 (Dense)         (None, 128)          7348352     simple_flatten_10[0][0]          
__________________________________________________________________________________________________
DiProDB_dense_28 (Dense)        (None, 128)          4903040     DiProDB_flatten_10[0][0]         
__________________________________________________________________________________________________
IDkmer_conv1d_10 (Conv1D)       (None, 3, 32)        160         IDkmer_input_10[0][0]            
__________________________________________________________________________________________________
DAC_concatenate_10 (Concatenate (None, 48, 32)       0           DAC_max_pooling1d_19[0][0]       
                                                                 DAC_max_pooling1d_20[0][0]       
__________________________________________________________________________________________________
DCC_concatenate_10 (Concatenate (None, 935, 32)      0           DCC_max_pooling1d_19[0][0]       
                                                                 DCC_max_pooling1d_20[0][0]       
__________________________________________________________________________________________________
PC_PseDNC_concatenate_10 (Conca (None, 45, 32)       0           PC_PseDNC_conv1d_28[0][0]        
                                                                 PC_PseDNC_conv1d_29[0][0]        
                                                                 PC_PseDNC_conv1d_30[0][0]        
__________________________________________________________________________________________________
PC_PseTNC_concatenate_10 (Conca (None, 189, 32)      0           PC_PseTNC_conv1d_28[0][0]        
                                                                 PC_PseTNC_conv1d_29[0][0]        
                                                                 PC_PseTNC_conv1d_30[0][0]        
__________________________________________________________________________________________________
SC_PseDNC_concatenate_10 (Conca (None, 267, 32)      0           SC_PseDNC_conv1d_28[0][0]        
                                                                 SC_PseDNC_conv1d_29[0][0]        
                                                                 SC_PseDNC_conv1d_30[0][0]        
__________________________________________________________________________________________________
SC_PseTNC_concatenate_10 (Conca (None, 255, 32)      0           SC_PseTNC_conv1d_28[0][0]        
                                                                 SC_PseTNC_conv1d_29[0][0]        
                                                                 SC_PseTNC_conv1d_30[0][0]        
__________________________________________________________________________________________________
simple_dropout_19 (Dropout)     (None, 128)          0           simple_dense_28[0][0]            
__________________________________________________________________________________________________
DiProDB_dropout_19 (Dropout)    (None, 128)          0           DiProDB_dense_28[0][0]           
__________________________________________________________________________________________________
IDkmer_flatten_10 (Flatten)     (None, 96)           0           IDkmer_conv1d_10[0][0]           
__________________________________________________________________________________________________
DAC_flatten_10 (Flatten)        (None, 1536)         0           DAC_concatenate_10[0][0]         
__________________________________________________________________________________________________
DCC_flatten_10 (Flatten)        (None, 29920)        0           DCC_concatenate_10[0][0]         
__________________________________________________________________________________________________
PC_PseDNC_flatten_10 (Flatten)  (None, 1440)         0           PC_PseDNC_concatenate_10[0][0]   
__________________________________________________________________________________________________
PC_PseTNC_flatten_10 (Flatten)  (None, 6048)         0           PC_PseTNC_concatenate_10[0][0]   
__________________________________________________________________________________________________
SC_PseDNC_flatten_10 (Flatten)  (None, 8544)         0           SC_PseDNC_concatenate_10[0][0]   
__________________________________________________________________________________________________
SC_PseTNC_flatten_10 (Flatten)  (None, 8160)         0           SC_PseTNC_concatenate_10[0][0]   
__________________________________________________________________________________________________
simple_dense_29 (Dense)         (None, 128)          16512       simple_dropout_19[0][0]          
__________________________________________________________________________________________________
DiProDB_dense_29 (Dense)        (None, 128)          16512       DiProDB_dropout_19[0][0]         
__________________________________________________________________________________________________
IDkmer_dense_19 (Dense)         (None, 64)           6208        IDkmer_flatten_10[0][0]          
__________________________________________________________________________________________________
DAC_dense_19 (Dense)            (None, 64)           98368       DAC_flatten_10[0][0]             
__________________________________________________________________________________________________
DCC_dense_19 (Dense)            (None, 64)           1914944     DCC_flatten_10[0][0]             
__________________________________________________________________________________________________
PC_PseDNC_dense_19 (Dense)      (None, 64)           92224       PC_PseDNC_flatten_10[0][0]       
__________________________________________________________________________________________________
PC_PseTNC_dense_19 (Dense)      (None, 64)           387136      PC_PseTNC_flatten_10[0][0]       
__________________________________________________________________________________________________
SC_PseDNC_dense_19 (Dense)      (None, 64)           546880      SC_PseDNC_flatten_10[0][0]       
__________________________________________________________________________________________________
SC_PseTNC_dense_19 (Dense)      (None, 64)           522304      SC_PseTNC_flatten_10[0][0]       
__________________________________________________________________________________________________
simple_dropout_20 (Dropout)     (None, 128)          0           simple_dense_29[0][0]            
__________________________________________________________________________________________________
DiProDB_dropout_20 (Dropout)    (None, 128)          0           DiProDB_dense_29[0][0]           
__________________________________________________________________________________________________
IDkmer_dropout_10 (Dropout)     (None, 64)           0           IDkmer_dense_19[0][0]            
__________________________________________________________________________________________________
DAC_dropout_10 (Dropout)        (None, 64)           0           DAC_dense_19[0][0]               
__________________________________________________________________________________________________
DCC_dropout_10 (Dropout)        (None, 64)           0           DCC_dense_19[0][0]               
__________________________________________________________________________________________________
PC_PseDNC_dropout_10 (Dropout)  (None, 64)           0           PC_PseDNC_dense_19[0][0]         
__________________________________________________________________________________________________
PC_PseTNC_dropout_10 (Dropout)  (None, 64)           0           PC_PseTNC_dense_19[0][0]         
__________________________________________________________________________________________________
SC_PseDNC_dropout_10 (Dropout)  (None, 64)           0           SC_PseDNC_dense_19[0][0]         
__________________________________________________________________________________________________
SC_PseTNC_dropout_10 (Dropout)  (None, 64)           0           SC_PseTNC_dense_19[0][0]         
__________________________________________________________________________________________________
simple_dense_30 (Dense)         (None, 1)            129         simple_dropout_20[0][0]          
__________________________________________________________________________________________________
DiProDB_dense_30 (Dense)        (None, 1)            129         DiProDB_dropout_20[0][0]         
__________________________________________________________________________________________________
IDkmer_dense_20 (Dense)         (None, 1)            65          IDkmer_dropout_10[0][0]          
__________________________________________________________________________________________________
DAC_dense_20 (Dense)            (None, 1)            65          DAC_dropout_10[0][0]             
__________________________________________________________________________________________________
DCC_dense_20 (Dense)            (None, 1)            65          DCC_dropout_10[0][0]             
__________________________________________________________________________________________________
PC_PseDNC_dense_20 (Dense)      (None, 1)            65          PC_PseDNC_dropout_10[0][0]       
__________________________________________________________________________________________________
PC_PseTNC_dense_20 (Dense)      (None, 1)            65          PC_PseTNC_dropout_10[0][0]       
__________________________________________________________________________________________________
SC_PseDNC_dense_20 (Dense)      (None, 1)            65          SC_PseDNC_dropout_10[0][0]       
__________________________________________________________________________________________________
SC_PseTNC_dense_20 (Dense)      (None, 1)            65          SC_PseTNC_dropout_10[0][0]       
__________________________________________________________________________________________________
concatenate_10 (Concatenate)    (None, 9)            0           simple_dense_30[0][0]            
                                                                 DiProDB_dense_30[0][0]           
                                                                 IDkmer_dense_20[0][0]            
                                                                 DAC_dense_20[0][0]               
                                                                 DCC_dense_20[0][0]               
…
