Mode: acceptor_data 

_________________________________________________________________
Layer (type)                 Output Shape              Param #   
=================================================================
flatten_1 (Flatten)          (None, 2408)              0         
_________________________________________________________________
dense_1 (Dense)              (None, 602)               1450218   
_________________________________________________________________
dropout_1 (Dropout)          (None, 602)               0         
_________________________________________________________________
dense_2 (Dense)              (None, 80)                48240     
_________________________________________________________________
dropout_2 (Dropout)          (None, 80)                0         
_________________________________________________________________
dense_3 (Dense)              (None, 30)                2430      
_________________________________________________________________
dropout_3 (Dropout)          (None, 30)                0         
_________________________________________________________________
dense_4 (Dense)              (None, 10)                310       
_________________________________________________________________
dense_5 (Dense)              (None, 1)                 11        
=================================================================
Total params: 1,501,209
Trainable params: 1,501,209
Non-trainable params: 0
_________________________________________________________________
Mean: 92.375, Std: 0.2991655060330342

This took 430.05286407470703 seconds.

Mode: donor_data 

_________________________________________________________________
Layer (type)                 Output Shape              Param #   
=================================================================
flatten_11 (Flatten)         (None, 2408)              0         
_________________________________________________________________
dense_51 (Dense)             (None, 602)               1450218   
_________________________________________________________________
dropout_31 (Dropout)         (None, 602)               0         
_________________________________________________________________
dense_52 (Dense)             (None, 80)                48240     
_________________________________________________________________
dropout_32 (Dropout)         (None, 80)                0         
_________________________________________________________________
dense_53 (Dense)             (None, 30)                2430      
_________________________________________________________________
dropout_33 (Dropout)         (None, 30)                0         
_________________________________________________________________
dense_54 (Dense)             (None, 10)                310       
_________________________________________________________________
dense_55 (Dense)             (None, 1)                 11        
=================================================================
Total params: 1,501,209
Trainable params: 1,501,209
Non-trainable params: 0
_________________________________________________________________
Mean: 93.4375, Std: 0.33396294704652135

This took 461.9025399684906 seconds.

Mode: acceptor_data
_________________________________________________________________
Layer (type)                 Output Shape              Param #   
=================================================================
flatten_1 (Flatten)          (None, 2408)              0         
_________________________________________________________________
dense_1 (Dense)              (None, 602)               1450218   
_________________________________________________________________
dropout_1 (Dropout)          (None, 602)               0         
_________________________________________________________________
dense_2 (Dense)              (None, 30)                18090     
_________________________________________________________________
dropout_2 (Dropout)          (None, 30)                0         
_________________________________________________________________
dense_3 (Dense)              (None, 10)                310       
_________________________________________________________________
dropout_3 (Dropout)          (None, 10)                0         
_________________________________________________________________
dense_4 (Dense)              (None, 1)                 11        
=================================================================
Total params: 1,468,629
Trainable params: 1,468,629
Non-trainable params: 0
_________________________________________________________________
Mode: acceptor_data
_________________________________________________________________
Layer (type)                 Output Shape              Param #   
=================================================================
flatten_1 (Flatten)          (None, 2408)              0         
_________________________________________________________________
dense_1 (Dense)              (None, 602)               1450218   
_________________________________________________________________
dropout_1 (Dropout)          (None, 602)               0         
_________________________________________________________________
dense_2 (Dense)              (None, 30)                18090     
_________________________________________________________________
dropout_2 (Dropout)          (None, 30)                0         
_________________________________________________________________
dense_3 (Dense)              (None, 10)                310       
_________________________________________________________________
dropout_3 (Dropout)          (None, 10)                0         
_________________________________________________________________
dense_4 (Dense)              (None, 1)                 11        
=================================================================
Total params: 1,468,629
Trainable params: 1,468,629
Non-trainable params: 0
_________________________________________________________________
Mean: 92.49, Std: 0.36403983298535175

This took 456.0121717453003 seconds.


-------------------------------------------------------------------------------

Mode: donor_data
_________________________________________________________________
Layer (type)                 Output Shape              Param #   
=================================================================
flatten_11 (Flatten)         (None, 2408)              0         
_________________________________________________________________
dense_41 (Dense)             (None, 602)               1450218   
_________________________________________________________________
dropout_31 (Dropout)         (None, 602)               0         
_________________________________________________________________
dense_42 (Dense)             (None, 30)                18090     
_________________________________________________________________
dropout_32 (Dropout)         (None, 30)                0         
_________________________________________________________________
dense_43 (Dense)             (None, 10)                310       
_________________________________________________________________
dropout_33 (Dropout)         (None, 10)                0         
_________________________________________________________________
dense_44 (Dense)             (None, 1)                 11        
=================================================================
Total params: 1,468,629
Trainable params: 1,468,629
Non-trainable params: 0
_________________________________________________________________
Mean: 93.87, Std: 0.3289756829919194

This took 444.0188989639282 seconds.


-------------------------------------------------------------------------------

Mode: acceptor_data
_________________________________________________________________
Layer (type)                 Output Shape              Param #   
=================================================================
flatten_1 (Flatten)          (None, 2408)              0         
_________________________________________________________________
dense_1 (Dense)              (None, 30)                72270     
_________________________________________________________________
dropout_1 (Dropout)          (None, 30)                0         
_________________________________________________________________
dense_2 (Dense)              (None, 1)                 31        
=================================================================
Total params: 72,301
Trainable params: 72,301
Non-trainable params: 0
_________________________________________________________________
Mean: 92.29249999999999, Std: 0.33875691874853253

This took 82.7702283859253 seconds.


-------------------------------------------------------------------------------

Mode: donor_data
_________________________________________________________________
Layer (type)                 Output Shape              Param #   
=================================================================
flatten_11 (Flatten)         (None, 2408)              0         
_________________________________________________________________
dense_21 (Dense)             (None, 30)                72270     
_________________________________________________________________
dropout_11 (Dropout)         (None, 30)                0         
_________________________________________________________________
dense_22 (Dense)             (None, 1)                 31        
=================================================================
Total params: 72,301
Trainable params: 72,301
Non-trainable params: 0
_________________________________________________________________
Mean: 93.50750000000001, Std: 0.3138570534494943

This took 89.22348165512085 seconds.


-------------------------------------------------------------------------------

Mode: acceptor_data
_________________________________________________________________
Layer (type)                 Output Shape              Param #   
=================================================================
flatten_1 (Flatten)          (None, 2408)              0         
_________________________________________________________________
dropout_1 (Dropout)          (None, 2408)              0         
_________________________________________________________________
dense_1 (Dense)              (None, 1)                 2409      
=================================================================
Total params: 2,409
Trainable params: 2,409
Non-trainable params: 0
_________________________________________________________________
Mean: 62.2375, Std: 5.57239008415599

This took 121.80293607711792 seconds.


-------------------------------------------------------------------------------

Mode: donor_data
_________________________________________________________________
Layer (type)                 Output Shape              Param #   
=================================================================
flatten_11 (Flatten)         (None, 2408)              0         
_________________________________________________________________
dropout_11 (Dropout)         (None, 2408)              0         
_________________________________________________________________
dense_11 (Dense)             (None, 1)                 2409      
=================================================================
Total params: 2,409
Trainable params: 2,409
Non-trainable params: 0
_________________________________________________________________
Mean: 63.15, Std: 2.509357487485591

This took 117.81155848503113 seconds.


-------------------------------------------------------------------------------

_________________________________________________________________
Mode: acceptor_data
_________________________________________________________________
Layer (type)                 Output Shape              Param #   
=================================================================
flatten_1 (Flatten)          (None, 2408)              0         
_________________________________________________________________
dense_1 (Dense)              (None, 80)                192720    
_________________________________________________________________
dropout_1 (Dropout)          (None, 80)                0         
_________________________________________________________________
dense_2 (Dense)              (None, 30)                2430      
_________________________________________________________________
dropout_2 (Dropout)          (None, 30)                0         
_________________________________________________________________
dense_3 (Dense)              (None, 40)                1240      
_________________________________________________________________
dropout_3 (Dropout)          (None, 40)                0         
_________________________________________________________________
dense_4 (Dense)              (None, 1)                 41        
=================================================================
Total params: 196,431
Trainable params: 196,431
Non-trainable params: 0
_________________________________________________________________
Mean: 92.43750000000001, Std: 0.35412744880904246

This took 131.30148100852966 seconds.


-------------------------------------------------------------------------------

Mode: donor_data
_________________________________________________________________
Layer (type)                 Output Shape              Param #   
=================================================================
flatten_11 (Flatten)         (None, 2408)              0         
_________________________________________________________________
dense_41 (Dense)             (None, 80)                192720    
_________________________________________________________________
dropout_31 (Dropout)         (None, 80)                0         
_________________________________________________________________
dense_42 (Dense)             (None, 30)                2430      
_________________________________________________________________
dropout_32 (Dropout)         (None, 30)                0         
_________________________________________________________________
dense_43 (Dense)             (None, 40)                1240      
_________________________________________________________________
dropout_33 (Dropout)         (None, 40)                0         
_________________________________________________________________
dense_44 (Dense)             (None, 1)                 41        
=================================================================
Total params: 196,431
Trainable params: 196,431
Non-trainable params: 0
_________________________________________________________________
Mean: 93.85, Std: 0.33222733180760583

This took 136.1810441017151 seconds.


-------------------------------------------------------------------------------

Mode: acceptor_data
_________________________________________________________________
Layer (type)                 Output Shape              Param #   
=================================================================
flatten_1 (Flatten)          (None, 2408)              0         
_________________________________________________________________
dense_1 (Dense)              (None, 80)                192720    
_________________________________________________________________
dropout_1 (Dropout)          (None, 80)                0         
_________________________________________________________________
dense_2 (Dense)              (None, 30)                2430      
_________________________________________________________________
dropout_2 (Dropout)          (None, 30)                0         
_________________________________________________________________
dense_3 (Dense)              (None, 1)                 31        
=================================================================
Total params: 195,181
Trainable params: 195,181
Non-trainable params: 0
_________________________________________________________________
Mode: acceptor_data
_________________________________________________________________
Layer (type)                 Output Shape              Param #   
=================================================================
flatten_1 (Flatten)          (None, 2408)              0         
_________________________________________________________________
dense_1 (Dense)              (None, 80)                192720    
_________________________________________________________________
dropout_1 (Dropout)          (None, 80)                0         
_________________________________________________________________
dense_2 (Dense)              (None, 30)                2430      
_________________________________________________________________
dropout_2 (Dropout)          (None, 30)                0         
_________________________________________________________________
dense_3 (Dense)              (None, 1)                 31        
=================================================================
Total params: 195,181
Trainable params: 195,181
Non-trainable params: 0
_________________________________________________________________
Mean: 92.2125, Std: 0.34209830458509966

This took 131.1367380619049 seconds.


-------------------------------------------------------------------------------

Mode: donor_data
_________________________________________________________________
Layer (type)                 Output Shape              Param #   
=================================================================
flatten_11 (Flatten)         (None, 2408)              0         
_________________________________________________________________
dense_31 (Dense)             (None, 80)                192720    
_________________________________________________________________
dropout_21 (Dropout)         (None, 80)                0         
_________________________________________________________________
dense_32 (Dense)             (None, 30)                2430      
_________________________________________________________________
dropout_22 (Dropout)         (None, 30)                0         
_________________________________________________________________
dense_33 (Dense)             (None, 1)                 31        
=================================================================
Total params: 195,181
Trainable params: 195,181
Non-trainable params: 0
_________________________________________________________________
Mean: 93.53, Std: 0.4424081825644721

This took 135.48761248588562 seconds.


-------------------------------------------------------------------------------

Mode: acceptor_data
_________________________________________________________________
Layer (type)                 Output Shape              Param #   
=================================================================
flatten_1 (Flatten)          (None, 2408)              0         
_________________________________________________________________
dense_1 (Dense)              (None, 200)               481800    
_________________________________________________________________
dropout_1 (Dropout)          (None, 200)               0         
_________________________________________________________________
dense_2 (Dense)              (None, 40)                8040      
_________________________________________________________________
dropout_2 (Dropout)          (None, 40)                0         
_________________________________________________________________
dense_3 (Dense)              (None, 1)                 41        
=================================================================
Total params: 489,881
Trainable params: 489,881
Non-trainable params: 0
_________________________________________________________________
Mean: 92.2625, Std: 0.28750000000000137

This took 209.13045144081116 seconds.


-------------------------------------------------------------------------------

Mode: donor_data
_________________________________________________________________
Layer (type)                 Output Shape              Param #   
=================================================================
flatten_11 (Flatten)         (None, 2408)              0         
_________________________________________________________________
dense_31 (Dense)             (None, 200)               481800    
_________________________________________________________________
dropout_21 (Dropout)         (None, 200)               0         
_________________________________________________________________
dense_32 (Dense)             (None, 40)                8040      
_________________________________________________________________
dropout_22 (Dropout)         (None, 40)                0         
_________________________________________________________________
dense_33 (Dense)             (None, 1)                 41        
=================================================================
Total params: 489,881
Trainable params: 489,881
Non-trainable params: 0
_________________________________________________________________
Mean: 93.53, Std: 0.26358110706194315

This took 215.82657289505005 seconds.


-------------------------------------------------------------------------------

Mode: acceptor_data_100000
_________________________________________________________________
Layer (type)                 Output Shape              Param #   
=================================================================
flatten_1 (Flatten)          (None, 2408)              0         
_________________________________________________________________
dropout_1 (Dropout)          (None, 2408)              0         
_________________________________________________________________
dense_1 (Dense)              (None, 100)               240900    
_________________________________________________________________
dropout_2 (Dropout)          (None, 100)               0         
_________________________________________________________________
dense_2 (Dense)              (None, 80)                8080      
_________________________________________________________________
dropout_3 (Dropout)          (None, 80)                0         
_________________________________________________________________
dense_3 (Dense)              (None, 30)                2430      
_________________________________________________________________
dropout_4 (Dropout)          (None, 30)                0         
_________________________________________________________________
dense_4 (Dense)              (None, 1)                 31        
=================================================================
Total params: 251,441
Trainable params: 251,441
Non-trainable params: 0
_________________________________________________________________
Mean: 93.342, Std: 0.21185136298829502

This took 852.2322728633881 seconds.


-------------------------------------------------------------------------------

Mode: donor_data_100000
_________________________________________________________________
Layer (type)                 Output Shape              Param #   
=================================================================
flatten_11 (Flatten)         (None, 2408)              0         
_________________________________________________________________
dropout_41 (Dropout)         (None, 2408)              0         
_________________________________________________________________
dense_41 (Dense)             (None, 100)               240900    
_________________________________________________________________
dropout_42 (Dropout)         (None, 100)               0         
_________________________________________________________________
dense_42 (Dense)             (None, 80)                8080      
_________________________________________________________________
dropout_43 (Dropout)         (None, 80)                0         
_________________________________________________________________
dense_43 (Dense)             (None, 30)                2430      
_________________________________________________________________
dropout_44 (Dropout)         (None, 30)                0         
_________________________________________________________________
dense_44 (Dense)             (None, 1)                 31        
=================================================================
Total params: 251,441
Trainable params: 251,441
Non-trainable params: 0
_________________________________________________________________
Mean: 93.336, Std: 0.26580820152884493

This took 961.6309790611267 seconds.


-------------------------------------------------------------------------------

Mode: acceptor_data_100000
_________________________________________________________________
Layer (type)                 Output Shape              Param #   
=================================================================
flatten_1 (Flatten)          (None, 2408)              0         
_________________________________________________________________
dropout_1 (Dropout)          (None, 2408)              0         
_________________________________________________________________
dense_1 (Dense)              (None, 100)               240900    
_________________________________________________________________
dropout_2 (Dropout)          (None, 100)               0         
_________________________________________________________________
dense_2 (Dense)              (None, 80)                8080      
_________________________________________________________________
dropout_3 (Dropout)          (None, 80)                0         
_________________________________________________________________
dense_3 (Dense)              (None, 80)                6480      
_________________________________________________________________
dense_4 (Dense)              (None, 30)                2430      
_________________________________________________________________
dropout_4 (Dropout)          (None, 30)                0         
_________________________________________________________________
dense_5 (Dense)              (None, 1)                 31        
=================================================================
Total params: 257,921
Trainable params: 257,921
Non-trainable params: 0
_________________________________________________________________
Mean: 93.2545, Std: 0.31943270026720955

This took 871.5603241920471 seconds.


-------------------------------------------------------------------------------

Mode: donor_data_100000
_________________________________________________________________
Layer (type)                 Output Shape              Param #   
=================================================================
flatten_11 (Flatten)         (None, 2408)              0         
_________________________________________________________________
dropout_41 (Dropout)         (None, 2408)              0         
_________________________________________________________________
dense_51 (Dense)             (None, 100)               240900    
_________________________________________________________________
dropout_42 (Dropout)         (None, 100)               0         
_________________________________________________________________
dense_52 (Dense)             (None, 80)                8080      
_________________________________________________________________
dropout_43 (Dropout)         (None, 80)                0         
_________________________________________________________________
dense_53 (Dense)             (None, 80)                6480      
_________________________________________________________________
dense_54 (Dense)             (None, 30)                2430      
_________________________________________________________________
dropout_44 (Dropout)         (None, 30)                0         
_________________________________________________________________
dense_55 (Dense)             (None, 1)                 31        
=================================================================
Total params: 257,921
Trainable params: 257,921
Non-trainable params: 0
_________________________________________________________________
Mean: 93.203, Std: 0.2685162937328004

This took 940.4082992076874 seconds.


-------------------------------------------------------------------------------


Mode: acceptor_data
_________________________________________________________________
Layer (type)                 Output Shape              Param #   
=================================================================
flatten_9 (Flatten)          (None, 2408)              0         
_________________________________________________________________
dense_57 (Dense)             (None, 300)               722700    
_________________________________________________________________
dropout_41 (Dropout)         (None, 300)               0         
_________________________________________________________________
dense_58 (Dense)             (None, 80)                24080     
_________________________________________________________________
dropout_42 (Dropout)         (None, 80)                0         
_________________________________________________________________
dense_59 (Dense)             (None, 80)                6480      
_________________________________________________________________
dropout_43 (Dropout)         (None, 80)                0         
_________________________________________________________________
dense_60 (Dense)             (None, 80)                6480      
_________________________________________________________________
dropout_44 (Dropout)         (None, 80)                0         
_________________________________________________________________
dense_61 (Dense)             (None, 80)                6480      
_________________________________________________________________
dense_62 (Dense)             (None, 30)                2430      
_________________________________________________________________
dropout_45 (Dropout)         (None, 30)                0         
_________________________________________________________________
dense_63 (Dense)             (None, 1)                 31        
=================================================================
Total params: 768,681
Trainable params: 768,681
Non-trainable params: 0
_________________________________________________________________
Mean: 92.50000000000001, Std: 0.37533318531672766

This took 331.88215923309326 seconds.


-------------------------------------------------------------------------------

Mode: donor_data
_________________________________________________________________
Layer (type)                 Output Shape              Param #   
=================================================================
flatten_19 (Flatten)         (None, 2408)              0         
_________________________________________________________________
dense_127 (Dense)            (None, 300)               722700    
_________________________________________________________________
dropout_91 (Dropout)         (None, 300)               0         
_________________________________________________________________
dense_128 (Dense)            (None, 80)                24080     
_________________________________________________________________
dropout_92 (Dropout)         (None, 80)                0         
_________________________________________________________________
dense_129 (Dense)            (None, 80)                6480      
_________________________________________________________________
dropout_93 (Dropout)         (None, 80)                0         
_________________________________________________________________
dense_130 (Dense)            (None, 80)                6480      
_________________________________________________________________
dropout_94 (Dropout)         (None, 80)                0         
_________________________________________________________________
dense_131 (Dense)            (None, 80)                6480      
_________________________________________________________________
dense_132 (Dense)            (None, 30)                2430      
_________________________________________________________________
dropout_95 (Dropout)         (None, 30)                0         
_________________________________________________________________
dense_133 (Dense)            (None, 1)                 31        
=================================================================
Total params: 768,681
Trainable params: 768,681
Non-trainable params: 0
_________________________________________________________________
Mean: 93.82000000000001, Std: 0.3836991008589924

This took 413.3204264640808 seconds.


-------------------------------------------------------------------------------

MULTI LABEL APPROACH

Data shape: (80000, 602, 4)
Mode: both_data
_________________________________________________________________
Layer (type)                 Output Shape              Param #   
=================================================================
flatten_9 (Flatten)          (None, 2408)              0         
_________________________________________________________________
dense_41 (Dense)             (None, 300)               722700    
_________________________________________________________________
dropout_25 (Dropout)         (None, 300)               0         
_________________________________________________________________
dense_42 (Dense)             (None, 80)                24080     
_________________________________________________________________
dropout_26 (Dropout)         (None, 80)                0         
_________________________________________________________________
dense_43 (Dense)             (None, 80)                6480      
_________________________________________________________________
dense_44 (Dense)             (None, 30)                2430      
_________________________________________________________________
dropout_27 (Dropout)         (None, 30)                0         
_________________________________________________________________
dense_45 (Dense)             (None, 4)                 124       
=================================================================
Total params: 755,814
Trainable params: 755,814
Non-trainable params: 0
_________________________________________________________________
Mean: 96.6003125, Std: 0.13940757747070187

This took 502.8338601589203 seconds.

Epochs: 10, Batch size: 500

-------------------------------------------------------------------------------

Data shape: (40000, 602, 4)
Mode: acceptor_data
_________________________________________________________________
Layer (type)                 Output Shape              Param #   
=================================================================
flatten_9 (Flatten)          (None, 2408)              0         
_________________________________________________________________
dense_49 (Dense)             (None, 300)               722700    
_________________________________________________________________
dropout_41 (Dropout)         (None, 300)               0         
_________________________________________________________________
dense_50 (Dense)             (None, 80)                24080     
_________________________________________________________________
dropout_42 (Dropout)         (None, 80)                0         
_________________________________________________________________
dense_51 (Dense)             (None, 80)                6480      
_________________________________________________________________
dropout_43 (Dropout)         (None, 80)                0         
_________________________________________________________________
dense_52 (Dense)             (None, 80)                6480      
_________________________________________________________________
dropout_44 (Dropout)         (None, 80)                0         
_________________________________________________________________
dense_53 (Dense)             (None, 30)                2430      
_________________________________________________________________
dropout_45 (Dropout)         (None, 30)                0         
_________________________________________________________________
dense_54 (Dense)             (None, 2)                 62        
=================================================================
Total params: 762,232
Trainable params: 762,232
Non-trainable params: 0
_________________________________________________________________
Mean: 92.4525, Std: 0.22979610527596073

This took 309.57208466529846 seconds.

Epochs: 10, Batch size: 500

-------------------------------------------------------------------------------

Data shape: (40000, 602, 4)
Mode: donor_data
_________________________________________________________________
Layer (type)                 Output Shape              Param #   
=================================================================
flatten_19 (Flatten)         (None, 2408)              0         
_________________________________________________________________
dense_109 (Dense)            (None, 300)               722700    
_________________________________________________________________
dropout_91 (Dropout)         (None, 300)               0         
_________________________________________________________________
dense_110 (Dense)            (None, 80)                24080     
_________________________________________________________________
dropout_92 (Dropout)         (None, 80)                0         
_________________________________________________________________
dense_111 (Dense)            (None, 80)                6480      
_________________________________________________________________
dropout_93 (Dropout)         (None, 80)                0         
_________________________________________________________________
dense_112 (Dense)            (None, 80)                6480      
_________________________________________________________________
dropout_94 (Dropout)         (None, 80)                0         
_________________________________________________________________
dense_113 (Dense)            (None, 30)                2430      
_________________________________________________________________
dropout_95 (Dropout)         (None, 30)                0         
_________________________________________________________________
dense_114 (Dense)            (None, 2)                 62        
=================================================================
Total params: 762,232
Trainable params: 762,232
Non-trainable params: 0
_________________________________________________________________
Mean: 93.86, Std: 0.36898509454989875

This took 310.17128467559814 seconds.

Epochs: 10, Batch size: 500

-------------------------------------------------------------------------------

Data shape: (40000, 602, 4)
Mode: acceptor_data
_________________________________________________________________
Layer (type)                 Output Shape              Param #   
=================================================================
flatten_9 (Flatten)          (None, 2408)              0         
_________________________________________________________________
dropout_65 (Dropout)         (None, 2408)              0         
_________________________________________________________________
dense_65 (Dense)             (None, 300)               722700    
_________________________________________________________________
dropout_66 (Dropout)         (None, 300)               0         
_________________________________________________________________
dense_66 (Dense)             (None, 80)                24080     
_________________________________________________________________
dropout_67 (Dropout)         (None, 80)                0         
_________________________________________________________________
dense_67 (Dense)             (None, 80)                6480      
_________________________________________________________________
dropout_68 (Dropout)         (None, 80)                0         
_________________________________________________________________
dense_68 (Dense)             (None, 60)                4860      
_________________________________________________________________
dropout_69 (Dropout)         (None, 60)                0         
_________________________________________________________________
dense_69 (Dense)             (None, 30)                1830      
_________________________________________________________________
dropout_70 (Dropout)         (None, 30)                0         
_________________________________________________________________
dense_70 (Dense)             (None, 30)                930       
_________________________________________________________________
dropout_71 (Dropout)         (None, 30)                0         
_________________________________________________________________
dense_71 (Dense)             (None, 30)                930       
_________________________________________________________________
dropout_72 (Dropout)         (None, 30)                0         
_________________________________________________________________
dense_72 (Dense)             (None, 2)                 62        
=================================================================
Total params: 761,872
Trainable params: 761,872
Non-trainable params: 0
_________________________________________________________________
Mean: 91.775, Std: 1.2540932979647095

This took 692.1978163719177 seconds.

Epochs: 20, Batch size: 1000

-------------------------------------------------------------------------------

Data shape: (40000, 602, 4)
Mode: acceptor_data
_________________________________________________________________
Layer (type)                 Output Shape              Param #   
=================================================================
flatten_9 (Flatten)          (None, 2408)              0         
_________________________________________________________________
dropout_25 (Dropout)         (None, 2408)              0         
_________________________________________________________________
dense_25 (Dense)             (None, 150)               361350    
_________________________________________________________________
dropout_26 (Dropout)         (None, 150)               0         
_________________________________________________________________
dense_26 (Dense)             (None, 40)                6040      
_________________________________________________________________
dropout_27 (Dropout)         (None, 40)                0         
_________________________________________________________________
dense_27 (Dense)             (None, 2)                 82        
=================================================================
Total params: 367,472
Trainable params: 367,472
Non-trainable params: 0
_________________________________________________________________
Mean: 92.21000000000001, Std: 0.3384154251803548

This took 481.89889311790466 seconds.

Epochs: 10, Batch size: 500

-------------------------------------------------------------------------------

Data shape: (40000, 602, 4)
Mode: donor_data
_________________________________________________________________
Layer (type)                 Output Shape              Param #   
=================================================================
flatten_19 (Flatten)         (None, 2408)              0         
_________________________________________________________________
dropout_145 (Dropout)        (None, 2408)              0         
_________________________________________________________________
dense_145 (Dense)            (None, 300)               722700    
_________________________________________________________________
dropout_146 (Dropout)        (None, 300)               0         
_________________________________________________________________
dense_146 (Dense)            (None, 80)                24080     
_________________________________________________________________
dropout_147 (Dropout)        (None, 80)                0         
_________________________________________________________________
dense_147 (Dense)            (None, 80)                6480      
_________________________________________________________________
dropout_148 (Dropout)        (None, 80)                0         
_________________________________________________________________
dense_148 (Dense)            (None, 60)                4860      
_________________________________________________________________
dropout_149 (Dropout)        (None, 60)                0         
_________________________________________________________________
dense_149 (Dense)            (None, 30)                1830      
_________________________________________________________________
dropout_150 (Dropout)        (None, 30)                0         
_________________________________________________________________
dense_150 (Dense)            (None, 30)                930       
_________________________________________________________________
dropout_151 (Dropout)        (None, 30)                0         
_________________________________________________________________
dense_151 (Dense)            (None, 30)                930       
_________________________________________________________________
dropout_152 (Dropout)        (None, 30)                0         
_________________________________________________________________
dense_152 (Dense)            (None, 2)                 62        
=================================================================
Total params: 761,872
Trainable params: 761,872
Non-trainable params: 0
_________________________________________________________________
Mean: 92.8425, Std: 1.5502439324183772

This took 1046.2308313846588 seconds.

Epochs: 20, Batch size: 1000

-------------------------------------------------------------------------------

Data shape: (40000, 602, 4)
Mode: donor_data
_________________________________________________________________
Layer (type)                 Output Shape              Param #   
=================================================================
flatten_19 (Flatten)         (None, 2408)              0         
_________________________________________________________________
dropout_55 (Dropout)         (None, 2408)              0         
_________________________________________________________________
dense_55 (Dense)             (None, 150)               361350    
_________________________________________________________________
dropout_56 (Dropout)         (None, 150)               0         
_________________________________________________________________
dense_56 (Dense)             (None, 40)                6040      
_________________________________________________________________
dropout_57 (Dropout)         (None, 40)                0         
_________________________________________________________________
dense_57 (Dense)             (None, 2)                 82        
=================================================================
Total params: 367,472
Trainable params: 367,472
Non-trainable params: 0
_________________________________________________________________
Mean: 93.49499999999999, Std: 0.35808518539587486

This took 380.1516888141632 seconds.

Epochs: 10, Batch size: 500

-------------------------------------------------------------------------------
…
-------------------------------------------------------------------------------

NAIVE BAYES APPROACH
Data shape: (40000, 602, 4)
Confusion matrix: [[1597  403]
 [ 365 1635]]
Classified donor_data
Mean: 80.75750000000001, Std: 0.47526966029823386

This took 14.857137441635132 seconds.


-------------------------------------------------------------------------------

MULTI LABEL APPROACH
Data shape: (200000, 602, 4)
_________________________________________________________________
Layer (type)                 Output Shape              Param #   
=================================================================
flatten_10 (Flatten)         (None, 2408)              0         
_________________________________________________________________
dense_19 (Dense)             (None, 30)                72270     
_________________________________________________________________
dropout_10 (Dropout)         (None, 30)                0         
_________________________________________________________________
dense_20 (Dense)             (None, 2)                 62        
=================================================================
Total params: 72,332
Trainable params: 72,332
Non-trainable params: 0
_________________________________________________________________
Confusion matrix: [[9425  575]
 [ 788 9212]]
Classified acceptor_data
Mean: 93.62, Std: 0.33530583054876717

This took 721.513671875 seconds.


-------------------------------------------------------------------------------

MULTI LABEL APPROACH
Data shape: (200000, 602, 4)
_________________________________________________________________
Layer (type)                 Output Shape              Param #   
=================================================================
flatten_20 (Flatten)         (None, 2408)              0         
_________________________________________________________________
dense_39 (Dense)             (None, 30)                72270     
_________________________________________________________________
dropout_20 (Dropout)         (None, 30)                0         
_________________________________________________________________
dense_40 (Dense)             (None, 2)                 62        
=================================================================
Total params: 72,332
Trainable params: 72,332
Non-trainable params: 0
_________________________________________________________________
Confusion matrix: [[9398  602]
 [ 755 9245]]
Classified donor_data
Mean: 93.62300000000002, Std: 0.3143024021543559

This took 675.4842007160187 seconds.


-------------------------------------------------------------------------------

GRADIENT BOOSTING APPROACH
Data shape: (40000, 602, 4)
Confusion matrix: [[1751  249]
 [ 162 1838]]
Classified acceptor_data
Mean: 88.99249999999999, Std: 0.48939375762263354

This took 410.04191279411316 seconds.


-------------------------------------------------------------------------------

BINARY CLASSIFICATION APPROACH
Data shape: (40000, 602, 4)
_________________________________________________________________
Layer (type)                 Output Shape              Param #   
=================================================================
input_10 (InputLayer)        (None, 602, 4)            0         
_________________________________________________________________
dense_28 (Dense)             (None, 602, 100)          500       
_________________________________________________________________
dropout_19 (Dropout)         (None, 602, 100)          0         
_________________________________________________________________
dense_29 (Dense)             (None, 602, 30)           3030      
_________________________________________________________________
dropout_20 (Dropout)         (None, 602, 30)           0         
_________________________________________________________________
flatten_10 (Flatten)         (None, 18060)             0         
_________________________________________________________________
dense_30 (Dense)             (None, 1)                 18061     
=================================================================
Total params: 21,591
Trainable params: 21,591
Non-trainable params: 0
_________________________________________________________________
Confusion matrix: [[1818  182]
 [ 105 1895]]
Classified acceptor_data
Mean: 92.39250000000001, Std: 0.42895949692249746

This took 5002.731471300125 seconds.


-------------------------------------------------------------------------------

BINARY CLASSIFICATION APPROACH
Data shape: (40000, 601, 15)
_________________________________________________________________
Layer (type)                 Output Shape              Param #   
=================================================================
input_10 (InputLayer)        (None, 601, 15)           0         
_________________________________________________________________
flatten_10 (Flatten)         (None, 9015)              0         
_________________________________________________________________
dense_46 (Dense)             (None, 150)               1352400   
_________________________________________________________________
dropout_37 (Dropout)         (None, 150)               0         
_________________________________________________________________
dense_47 (Dense)             (None, 80)                12080     
_________________________________________________________________
dropout_38 (Dropout)         (None, 80)                0         
_________________________________________________________________
dense_48 (Dense)             (None, 30)                2430      
_________________________________________________________________
dropout_39 (Dropout)         (None, 30)                0         
_________________________________________________________________
dense_49 (Dense)             (None, 10)                310       
_________________________________________________________________
dropout_40 (Dropout)         (None, 10)                0         
_________________________________________________________________
dense_50 (Dense)             (None, 1)                 11        
=================================================================
Total params: 1,367,231
Trainable params: 1,367,231
Non-trainable params: 0
_________________________________________________________________
Confusion matrix: [[1808  192]
 [ 111 1889]]
Classified acceptor_data
Mean: 92.28, Std: 0.43023249528597973

This took 639.5810875892639 seconds.


-------------------------------------------------------------------------------

BINARY CLASSIFICATION APPROACH
Data shape: (40000, 601, 15)
_________________________________________________________________
Layer (type)                 Output Shape              Param #   
=================================================================
input_20 (InputLayer)        (None, 601, 15)           0         
_________________________________________________________________
flatten_20 (Flatten)         (None, 9015)              0         
_________________________________________________________________
dense_96 (Dense)             (None, 150)               1352400   
_________________________________________________________________
dropout_77 (Dropout)         (None, 150)               0         
_________________________________________________________________
dense_97 (Dense)             (None, 80)                12080     
_________________________________________________________________
dropout_78 (Dropout)         (None, 80)                0         
_________________________________________________________________
dense_98 (Dense)             (None, 30)                2430      
_________________________________________________________________
dropout_79 (Dropout)         (None, 30)                0         
_________________________________________________________________
dense_99 (Dense)             (None, 10)                310       
_________________________________________________________________
dropout_80 (Dropout)         (None, 10)                0         
_________________________________________________________________
dense_100 (Dense)            (None, 1)                 11        
=================================================================
Total params: 1,367,231
Trainable params: 1,367,231
Non-trainable params: 0
_________________________________________________________________
Confusion matrix: [[1840  160]
 [ 119 1881]]
Classified donor_data
Mean: 93.4025, Std: 0.27304990386374306

This took 660.7177155017853 seconds.


-------------------------------------------------------------------------------

DiProDB: BINARY CLASSIFICATION APPROACH
Data shape: (40000, 601, 15)
Epochs: 6, Batch size: 500
_________________________________________________________________
Layer (type)                 Output Shape              Param #   
=================================================================
input_10 (InputLayer)        (None, 601, 15)           0         
_________________________________________________________________
flatten_10 (Flatten)         (None, 9015)              0         
_________________________________________________________________
dense_46 (Dense)             (None, 150)               1352400   
_________________________________________________________________
dropout_37 (Dropout)         (None, 150)               0         
_________________________________________________________________
dense_47 (Dense)             (None, 80)                12080     
_________________________________________________________________
dropout_38 (Dropout)         (None, 80)                0         
_________________________________________________________________
dense_48 (Dense)             (None, 30)                2430      
_________________________________________________________________
dropout_39 (Dropout)         (None, 30)                0         
_________________________________________________________________
dense_49 (Dense)             (None, 10)                310       
_________________________________________________________________
dropout_40 (Dropout)         (None, 10)                0         
_________________________________________________________________
dense_50 (Dense)             (None, 1)                 11        
=================================================================
Total params: 1,367,231
Trainable params: 1,367,231
Non-trainable params: 0
_________________________________________________________________
Confusion matrix: [[1818  182]
 [ 118 1882]]
Classified acceptor_data
Mean: 91.71, Std: 1.0682462262980381

This took 554.2120506763458 seconds.


-------------------------------------------------------------------------------

DiProDB: BINARY CLASSIFICATION APPROACH
Data shape: (40000, 601, 15)
Epochs: 15, Batch size: 500
_________________________________________________________________
Layer (type)                 Output Shape              Param #   
=================================================================
input_10 (InputLayer)        (None, 601, 15)           0         
_________________________________________________________________
flatten_10 (Flatten)         (None, 9015)              0         
_________________________________________________________________
dense_37 (Dense)             (None, 100)               901600    
_________________________________________________________________
dropout_28 (Dropout)         (None, 100)               0         
_________________________________________________________________
dense_38 (Dense)             (None, 40)                4040      
_________________________________________________________________
dropout_29 (Dropout)         (None, 40)                0         
_________________________________________________________________
dense_39 (Dense)             (None, 40)                1640      
_________________________________________________________________
dropout_30 (Dropout)         (None, 40)                0         
_________________________________________________________________
dense_40 (Dense)             (None, 1)                 41        
=================================================================
Total params: 907,321
Trainable params: 907,321
Non-trainable params: 0
_________________________________________________________________
Confusion matrix: [[1841  159]
 [ 127 1873]]
Classified acceptor_data
Mean: 92.38250000000001, Std: 0.361602336828732

This took 877.4812331199646 seconds.


-------------------------------------------------------------------------------

DiProDB: BINARY CLASSIFICATION APPROACH
Data shape: (40000, 601, 15)
Epochs: 15, Batch size: 500
_________________________________________________________________
Layer (type)                 Output Shape              Param #   
=================================================================
input_20 (InputLayer)        (None, 601, 15)           0         
_________________________________________________________________
flatten_20 (Flatten)         (None, 9015)              0         
_________________________________________________________________
dense_77 (Dense)             (None, 100)               901600    
_________________________________________________________________
dropout_58 (Dropout)         (None, 100)               0         
_________________________________________________________________
dense_78 (Dense)             (None, 40)                4040      
_________________________________________________________________
dropout_59 (Dropout)         (None, 40)                0         
_________________________________________________________________
dense_79 (Dense)             (None, 40)                1640      
_________________________________________________________________
dropout_60 (Dropout)         (None, 40)                0         
_________________________________________________________________
dense_80 (Dense)             (None, 1)                 41        
=================================================================
Total params: 907,321
Trainable params: 907,321
Non-trainable params: 0
_________________________________________________________________
Confusion matrix: [[1858  142]
 [ 127 1873]]
Classified donor_data
Mean: 93.5825, Std: 0.31584212828563335

This took 842.6267728805542 seconds.


-------------------------------------------------------------------------------

DiProDB: BINARY CLASSIFICATION APPROACH
Data shape: (40000, 601, 15, 1)
Epochs: 10, Batch size: 500
Model: "model_10"
_________________________________________________________________
Layer (type)                 Output Shape              Param #   
=================================================================
input_10 (InputLayer)        (None, 601, 15, 1)        0         
_________________________________________________________________
conv2d_19 (Conv2D)           (None, 597, 1, 32)        2432      
_________________________________________________________________
max_pooling2d_19 (MaxPooling (None, 199, 1, 32)        0         
_________________________________________________________________
conv2d_20 (Conv2D)           (None, 197, 1, 64)        6208      
_________________________________________________________________
max_pooling2d_20 (MaxPooling (None, 65, 1, 64)         0         
_________________________________________________________________
flatten_10 (Flatten)         (None, 4160)              0         
_________________________________________________________________
dense_37 (Dense)             (None, 40)                166440    
_________________________________________________________________
dropout_28 (Dropout)         (None, 40)                0         
_________________________________________________________________
dense_38 (Dense)             (None, 40)                1640      
_________________________________________________________________
dropout_29 (Dropout)         (None, 40)                0         
_________________________________________________________________
dense_39 (Dense)             (None, 40)                1640      
_________________________________________________________________
dropout_30 (Dropout)         (None, 40)                0         
_________________________________________________________________
dense_40 (Dense)             (None, 1)                 41        
=================================================================
Total params: 178,401
Trainable params: 178,401
Non-trainable params: 0
_________________________________________________________________
Confusion matrix: [[1873  127]
 [ 102 1898]]
Classified acceptor_data
Mean: 94.145, Std: 0.2585536694769576

This took 856.5522632598877 seconds.


-------------------------------------------------------------------------------

DiProDB: BINARY CLASSIFICATION APPROACH
Data shape: (40000, 601, 15, 1)
Epochs: 10, Batch size: 500
Model: "model_10"
_________________________________________________________________
Layer (type)                 Output Shape              Param #   
=================================================================
input_10 (InputLayer)        (None, 601, 15, 1)        0         
_________________________________________________________________
conv2d_19 (Conv2D)           (None, 597, 1, 32)        2432      
_________________________________________________________________
max_pooling2d_19 (MaxPooling (None, 199, 1, 32)        0         
_________________________________________________________________
conv2d_20 (Conv2D)           (None, 197, 1, 64)        6208      
_________________________________________________________________
max_pooling2d_20 (MaxPooling (None, 65, 1, 64)         0         
_________________________________________________________________
flatten_10 (Flatten)         (None, 4160)              0         
_________________________________________________________________
dense_28 (Dense)             (None, 64)                266304    
_________________________________________________________________
dropout_19 (Dropout)         (None, 64)                0         
_________________________________________________________________
dense_29 (Dense)             (None, 64)                4160      
_________________________________________________________________
dropout_20 (Dropout)         (None, 64)                0         
_________________________________________________________________
dense_30 (Dense)             (None, 1)                 65        
=================================================================
Total params: 279,169
Trainable params: 279,169
Non-trainable params: 0
_________________________________________________________________
Confusion matrix: [[1907   93]
 [ 109 1891]]
Classified acceptor_data
Mean: 94.4125, Std: 0.32504807336761854

This took 883.9107520580292 seconds.


-------------------------------------------------------------------------------

DiProDB: BINARY CLASSIFICATION APPROACH
Data shape: (40000, 601, 15, 1)
Epochs: 10, Batch size: 500
Model: "model_20"
_________________________________________________________________
Layer (type)                 Output Shape              Param #   
=================================================================
input_20 (InputLayer)        (None, 601, 15, 1)        0         
_________________________________________________________________
conv2d_39 (Conv2D)           (None, 597, 1, 32)        2432      
_________________________________________________________________
max_pooling2d_39 (MaxPooling (None, 199, 1, 32)        0         
_________________________________________________________________
conv2d_40 (Conv2D)           (None, 197, 1, 64)        6208      
_________________________________________________________________
max_pooling2d_40 (MaxPooling (None, 65, 1, 64)         0         
_________________________________________________________________
flatten_20 (Flatten)         (None, 4160)              0         
_________________________________________________________________
dense_58 (Dense)             (None, 64)                266304    
_________________________________________________________________
dropout_39 (Dropout)         (None, 64)                0         
_________________________________________________________________
dense_59 (Dense)             (None, 64)                4160      
_________________________________________________________________
dropout_40 (Dropout)         (None, 64)                0         
_________________________________________________________________
dense_60 (Dense)             (None, 1)                 65        
=================================================================
Total params: 279,169
Trainable params: 279,169
Non-trainable params: 0
_________________________________________________________________
Confusion matrix: [[1887  113]
 [ 105 1895]]
Classified donor_data
Mean: 94.895, Std: 0.2666458325194685

This took 813.6925716400146 seconds.


-------------------------------------------------------------------------------

BINARY CLASSIFICATION APPROACH
Data shape: (40000, 602, 4, 1)
Epochs: 10, Batch size: 500
Model: "model_10"
_________________________________________________________________
Layer (type)                 Output Shape              Param #   
=================================================================
input_10 (InputLayer)        (None, 602, 4, 1)         0         
_________________________________________________________________
conv2d_19 (Conv2D)           (None, 600, 1, 32)        416       
_________________________________________________________________
max_pooling2d_19 (MaxPooling (None, 300, 1, 32)        0         
_________________________________________________________________
conv2d_20 (Conv2D)           (None, 298, 1, 64)        6208      
_________________________________________________________________
max_pooling2d_20 (MaxPooling (None, 99, 1, 64)         0         
_________________________________________________________________
flatten_10 (Flatten)         (None, 6336)              0         
_________________________________________________________________
dense_37 (Dense)             (None, 40)                253480    
_________________________________________________________________
dropout_28 (Dropout)         (None, 40)                0         
_________________________________________________________________
dense_38 (Dense)             (None, 40)                1640      
_________________________________________________________________
dropout_29 (Dropout)         (None, 40)                0         
_________________________________________________________________
dense_39 (Dense)             (None, 40)                1640      
_________________________________________________________________
dropout_30 (Dropout)         (None, 40)                0         
_________________________________________________________________
dense_40 (Dense)             (None, 1)                 41        
=================================================================
Total params: 263,425
Trainable params: 263,425
Non-trainable params: 0
_________________________________________________________________
Confusion matrix: [[1866  134]
 [ 108 1892]]
Recall: 94.52887537993921
Precision: 93.30000000000001
Classified acceptor_data
Mean: 93.51750000000001, Std: 0.5105205676561928

This took 476.1951901912689 seconds.


-------------------------------------------------------------------------------

BINARY CLASSIFICATION APPROACH
Data shape: (40000, 602, 4, 1)
Epochs: 10, Batch size: 500
Model: "model_10"
_________________________________________________________________
Layer (type)                 Output Shape              Param #   
=================================================================
input_10 (InputLayer)        (None, 602, 4, 1)         0         
_________________________________________________________________
conv2d_19 (Conv2D)           (None, 600, 1, 32)        416       
_________________________________________________________________
max_pooling2d_19 (MaxPooling (None, 300, 1, 32)        0         
_________________________________________________________________
conv2d_20 (Conv2D)           (None, 298, 1, 64)        6208      
_________________________________________________________________
max_pooling2d_20 (MaxPooling (None, 99, 1, 64)         0         
_________________________________________________________________
flatten_10 (Flatten)         (None, 6336)              0         
_________________________________________________________________
dense_37 (Dense)             (None, 40)                253480    
_________________________________________________________________
dropout_28 (Dropout)         (None, 40)                0         
_________________________________________________________________
dense_38 (Dense)             (None, 40)                1640      
_________________________________________________________________
dropout_29 (Dropout)         (None, 40)                0         
_________________________________________________________________
dense_39 (Dense)             (None, 40)                1640      
_________________________________________________________________
dropout_30 (Dropout)         (None, 40)                0         
_________________________________________________________________
dense_40 (Dense)             (None, 1)                 41        
=================================================================
Total params: 263,425
Trainable params: 263,425
Non-trainable params: 0
_________________________________________________________________
Confusion matrix: [[1879  121]
 [ 135 1865]]
Recall: 93.29692154915591
Precision: 93.95
Classified donor_data
Mean: 94.035, Std: 0.39515819616958414

This took 505.6514563560486 seconds.


-------------------------------------------------------------------------------

BINARY CLASSIFICATION APPROACH
Data shape: (40000, 602, 4, 1)
Epochs: 10, Batch size: 500
Model: "model_10"
_________________________________________________________________
Layer (type)                 Output Shape              Param #   
=================================================================
input_10 (InputLayer)        (None, 602, 4, 1)         0         
_________________________________________________________________
conv2d_28 (Conv2D)           (None, 600, 1, 32)        416       
_________________________________________________________________
max_pooling2d_28 (MaxPooling (None, 300, 1, 32)        0         
_________________________________________________________________
conv2d_29 (Conv2D)           (None, 298, 1, 64)        6208      
_________________________________________________________________
max_pooling2d_29 (MaxPooling (None, 99, 1, 64)         0         
_________________________________________________________________
conv2d_30 (Conv2D)           (None, 97, 1, 128)        24704     
_________________________________________________________________
max_pooling2d_30 (MaxPooling (None, 32, 1, 128)        0         
_________________________________________________________________
flatten_10 (Flatten)         (None, 4096)              0         
_________________________________________________________________
dense_28 (Dense)             (None, 64)                262208    
_________________________________________________________________
dropout_19 (Dropout)         (None, 64)                0         
_________________________________________________________________
dense_29 (Dense)             (None, 64)                4160      
_________________________________________________________________
dropout_20 (Dropout)         (None, 64)                0         
_________________________________________________________________
dense_30 (Dense)             (None, 1)                 65        
=================================================================
Total params: 297,761
Trainable params: 297,761
Non-trainable params: 0
_________________________________________________________________
Confusion matrix: [[1894  106]
 [ 105 1895]]
Recall: 94.74737368684342
Precision: 94.69999999999999
Classified donor_data
Mean: 94.43750000000001, Std: 0.3455520944807027

This took 653.2831311225891 seconds.
…
