{"keras_version": "2.2.5", "backend": "tensorflow", "config": {"output_layers": [["dense_20", 0, 0]], "name": "model_10", "input_layers": [["simple_input_10", 0, 0], ["DiProDB_input_10", 0, 0], ["trint_input_10", 0, 0]], "layers": [{"inbound_nodes": [], "name": "simple_input_10", "config": {"batch_input_shape": [null, 602, 4, 1], "dtype": "float32", "name": "simple_input_10", "sparse": false}, "class_name": "InputLayer"}, {"inbound_nodes": [[["simple_input_10", 0, 0, {}]]], "name": "simple_conv2d_55", "config": {"activation": "linear", "bias_initializer": {"config": {}, "class_name": "Zeros"}, "dilation_rate": [1, 1], "bias_regularizer": null, "filters": 32, "dtype": "float32", "kernel_size": [2, 4], "name": "simple_conv2d_55", "activity_regularizer": null, "kernel_initializer": {"config": {"seed": null, "distribution": "uniform", "scale": 1.0, "mode": "fan_avg"}, "class_name": "VarianceScaling"}, "kernel_regularizer": null, "use_bias": true, "strides": [1, 1], "bias_constraint": null, "data_format": "channels_last", "trainable": false, "batch_input_shape": [null, 602, 4, 1], "padding": "valid", "kernel_constraint": null}, "class_name": "Conv2D"}, {"inbound_nodes": [[["simple_input_10", 0, 0, {}]]], "name": "simple_conv2d_56", "config": {"activation": "linear", "bias_initializer": {"config": {}, "class_name": "Zeros"}, "dilation_rate": [1, 1], "bias_regularizer": null, "filters": 32, "dtype": "float32", "kernel_size": [3, 4], "name": "simple_conv2d_56", "activity_regularizer": null, "kernel_initializer": {"config": {"seed": null, "distribution": "uniform", "scale": 1.0, "mode": "fan_avg"}, "class_name": "VarianceScaling"}, "kernel_regularizer": null, "use_bias": true, "strides": [1, 1], "bias_constraint": null, "data_format": "channels_last", "trainable": false, "batch_input_shape": [null, 602, 4, 1], "padding": "valid", "kernel_constraint": null}, "class_name": "Conv2D"}, {"inbound_nodes": [[["simple_input_10", 0, 0, {}]]], "name": "simple_conv2d_57", "config": {"activation": "linear", "bias_initializer": {"config": {}, "class_name": "Zeros"}, "dilation_rate": [1, 1], "bias_regularizer": null, "filters": 32, "dtype": "float32", "kernel_size": [4, 4], "name": "simple_conv2d_57", "activity_regularizer": null, "kernel_initializer": {"config": {"seed": null, "distribution": "uniform", "scale": 1.0, "mode": "fan_avg"}, "class_name": "VarianceScaling"}, "kernel_regularizer": null, "use_bias": true, "strides": [1, 1], "bias_constraint": null, "data_format": "channels_last", "trainable": false, "batch_input_shape": [null, 602, 4, 1], "padding": "valid", "kernel_constraint": null}, "class_name": "Conv2D"}, {"inbound_nodes": [[["simple_input_10", 0, 0, {}]]], "name": "simple_conv2d_58", "config": {"activation": "linear", "bias_initializer": {"config": {}, "class_name": "Zeros"}, "dilation_rate": [1, 1], "bias_regularizer": null, "filters": 32, "dtype": "float32", "kernel_size": [5, 4], "name": "simple_conv2d_58", "activity_regularizer": null, "kernel_initializer": {"config": {"seed": null, "distribution": "uniform", "scale": 1.0, "mode": "fan_avg"}, "class_name": "VarianceScaling"}, "kernel_regularizer": null, "use_bias": true, "strides": [1, 1], "bias_constraint": null, "data_format": "channels_last", "trainable": false, "batch_input_shape": [null, 602, 4, 1], "padding": "valid", "kernel_constraint": null}, "class_name": "Conv2D"}, {"inbound_nodes": [[["simple_input_10", 0, 0, {}]]], "name": "simple_conv2d_59", "config": {"activation": "linear", "bias_initializer": {"config": {}, "class_name": "Zeros"}, "dilation_rate": [1, 1], "bias_regularizer": null, "filters": 32, "dtype": "float32", "kernel_size": [6, 4], "name": "simple_conv2d_59", "activity_regularizer": null, "kernel_initializer": {"config": {"seed": null, "distribution": "uniform", "scale": 1.0, "mode": "fan_avg"}, "class_name": "VarianceScaling"}, "kernel_regularizer": null, "use_bias": true, "strides": [1, 1], "bias_constraint": null, "data_format": "channels_last", "trainable": false, "batch_input_shape": [null, 602, 4, 1], "padding": "valid", "kernel_constraint": null}, "class_name": "Conv2D"}, {"inbound_nodes": [[["simple_input_10", 0, 0, {}]]], "name": "simple_conv2d_60", "config": {"activation": "linear", "bias_initializer": {"config": {}, "class_name": "Zeros"}, "dilation_rate": [1, 1], "bias_regularizer": null, "filters": 32, "dtype": "float32", "kernel_size": [7, 4], "name": "simple_conv2d_60", "activity_regularizer": null, "kernel_initializer": {"config": {"seed": null, "distribution": "uniform", "scale": 1.0, "mode": "fan_avg"}, "class_name": "VarianceScaling"}, "kernel_regularizer": null, "use_bias": true, "strides": [1, 1], "bias_constraint": null, "data_format": "channels_last", "trainable": false, "batch_input_shape": [null, 602, 4, 1], "padding": "valid", "kernel_constraint": null}, "class_name": "Conv2D"}, {"inbound_nodes": [], "name": "DiProDB_input_10", "config": {"batch_input_shape": [null, 601, 15, 1], "dtype": "float32", "name": "DiProDB_input_10", "sparse": false}, "class_name": "InputLayer"}, {"inbound_nodes": [[["simple_conv2d_55", 0, 0, {}]]], "name": "simple_max_pooling2d_55", "config": {"name": "simple_max_pooling2d_55", "data_format": "channels_last", "strides": [2, 1], "dtype": "float32", "pool_size": [2, 1], "padding": "valid", "trainable": false}, "class_name": "MaxPooling2D"}, {"inbound_nodes": [[["simple_conv2d_56", 0, 0, {}]]], "name": "simple_max_pooling2d_56", "config": {"name": "simple_max_pooling2d_56", "data_format": "channels_last", "strides": [2, 1], "dtype": "float32", "pool_size": [2, 1], "padding": "valid", "trainable": false}, "class_name": "MaxPooling2D"}, {"inbound_nodes": [[["simple_conv2d_57", 0, 0, {}]]], "name": "simple_max_pooling2d_57", "config": {"name": "simple_max_pooling2d_57", "data_format": "channels_last", "strides": [2, 1], "dtype": "float32", "pool_size": [2, 1], "padding": "valid", "trainable": false}, "class_name": "MaxPooling2D"}, {"inbound_nodes": [[["simple_conv2d_58", 0, 0, {}]]], "name": "simple_max_pooling2d_58", "config": {"name": "simple_max_pooling2d_58", "data_format": "channels_last", "strides": [2, 1], "dtype": "float32", "pool_size": [2, 1], "padding": "valid", "trainable": false}, "class_name": "MaxPooling2D"}, {"inbound_nodes": [[["simple_conv2d_59", 0, 0, {}]]], "name": "simple_max_pooling2d_59", "config": {"name": "simple_max_pooling2d_59", "data_format": "channels_last", "strides": [2, 1], "dtype": "float32", "pool_size": [2, 1], "padding": "valid", "trainable": false}, "class_name": "MaxPooling2D"}, {"inbound_nodes": [[["simple_conv2d_60", 0, 0, {}]]], "name": "simple_max_pooling2d_60", "config": {"name": "simple_max_pooling2d_60", "data_format": "channels_last", "strides": [2, 1], "dtype": "float32", "pool_size": [2, 1], "padding": "valid", "trainable": false}, "class_name": "MaxPooling2D"}, {"inbound_nodes": [[["DiProDB_input_10", 0, 0, {}]]], "name": "DiProDB_conv2d_19", "config": {"kernel_initializer": {"config": {"seed": null, "distribution": "uniform", "scale": 1.0, "mode": "fan_avg"}, "class_name": "VarianceScaling"}, "bias_initializer": {"config": {}, "class_name": "Zeros"}, "dilation_rate": [1, 1], "bias_regularizer": null, "filters": 32, "dtype": "float32", "kernel_size": [3, 15], "name": "DiProDB_conv2d_19", "activity_regularizer": null, "activation": "relu", "kernel_regularizer": null, "use_bias": true, "strides": [1, 1], "bias_constraint": null, "data_format": "channels_last", "trainable": false, "padding": "valid", "kernel_constraint": null}, "class_name": "Conv2D"}, {"inbound_nodes": [[["DiProDB_input_10", 0, 0, {}]]], "name": "DiProDB_conv2d_20", "config": {"kernel_initializer": {"config": {"seed": null, "distribution": "uniform", "scale": 1.0, "mode": "fan_avg"}, "class_name": "VarianceScaling"}, "bias_initializer": {"config": {}, "class_name": "Zeros"}, "dilation_rate": [1, 1], "bias_regularizer": null, "filters": 32, "dtype": "float32", "kernel_size": [4, 15], "name": "DiProDB_conv2d_20", "activity_regularizer": null, "activation": "relu", "kernel_regularizer": null, "use_bias": true, "strides": [1, 1], "bias_constraint": null, "data_format": "channels_last", "trainable": false, "padding": "valid", "kernel_constraint": null}, "class_name": "Conv2D"}, {"inbound_nodes": [], "name": "trint_input_10", "config": {"batch_input_shape": [null, 600, 64, 1], "dtype": "float32", "name": "trint_input_10", "sparse": false}, "class_name": "InputLayer"}, {"inbound_nodes": [[["simple_max_pooling2d_55", 0, 0, {}], ["simple_max_pooling2d_56", 0, 0, {}], ["simple_max_pooling2d_57", 0, 0, {}], ["simple_max_pooling2d_58", 0, 0, {}], ["simple_max_pooling2d_59", 0, 0, {}], ["simple_max_pooling2d_60", 0, 0, {}]]], "name": "simple_concatenate_10", "config": {"name": "simple_concatenate_10", "axis": 1, "dtype": "float32", "trainable": false}, "class_name": "Concatenate"}, {"inbound_nodes": [[["DiProDB_conv2d_19", 0, 0, {}], ["DiProDB_conv2d_20", 0, 0, {}]]], "name": "DiProDB_concatenate_10", "config": {"name": "DiProDB_concatenate_10", "axis": 1, "dtype": "float32", "trainable": false}, "class_name": "Concatenate"}, {"inbound_nodes": [[["trint_input_10", 0, 0, {}]]], "name": "trint_conv2d_64", "config": {"kernel_initializer": {"config": {"seed": null, "distribution": "uniform", "scale": 1.0, "mode": "fan_avg"}, "class_name": "VarianceScaling"}, "bias_initializer": {"config": {}, "class_name": "Zeros"}, "dilation_rate": [1, 1], "bias_regularizer": null, "filters": 32, "dtype": "float32", "kernel_size": [2, 64], "name": "trint_conv2d_64", "activity_regularizer": null, "activation": "relu", "kernel_regularizer": null, "use_bias": true, "strides": [1, 1], "bias_constraint": null, "data_format": "channels_last", "trainable": false, "padding": "valid", "kernel_constraint": null}, "class_name": "Conv2D"}, {"inbound_nodes": [[["trint_input_10", 0, 0, {}]]], "name": "trint_conv2d_65", "config": {"kernel_initializer": {"config": {"seed": null, "distribution": "uniform", "scale": 1.0, "mode": "fan_avg"}, "class_name": "VarianceScaling"}, "bias_initializer": {"config": {}, "class_name": "Zeros"}, "dilation_rate": [1, 1], "bias_regularizer": null, "filters": 32, "dtype": "float32", "kernel_size": [3, 64], "name": "trint_conv2d_65", "activity_regularizer": null, "activation": "relu", "kernel_regularizer": null, "use_bias": true, "strides": [1, 1], "bias_constraint": null, "data_format": "channels_last", "trainable": false, "padding": "valid", "kernel_constraint": null}, "class_name": "Conv2D"}, {"inbound_nodes": [[["trint_input_10", 0, 0, {}]]], "name": "trint_conv2d_66", "config": {"kernel_initializer": {"config": {"seed": null, "distribution": "uniform", "scale": 1.0, "mode": "fan_avg"}, "class_name": "VarianceScaling"}, "bias_initializer": {"config": {}, "class_name": "Zeros"}, "dilation_rate": [1, 1], "bias_regularizer": null, "filters": 32, "dtype": "float32", "kernel_size": [4, 64], "name": "trint_conv2d_66", "activity_regularizer": null, "activation": "relu", "kernel_regularizer": null, "use_bias": true, "strides": [1, 1], "bias_constraint": null, "data_format": "channels_last", "trainable": false, "padding": "valid", "kernel_constraint": null}, "class_name": "Conv2D"}, {"inbound_nodes": [[["trint_input_10", 0, 0, {}]]], "name": "trint_conv2d_67", "config": {"kernel_initializer": {"config": {"seed": null, "distribution": "uniform", "scale": 1.0, "mode": "fan_avg"}, "class_name": "VarianceScaling"}, "bias_initializer": {"config": {}, "class_name": "Zeros"}, "dilation_rate": [1, 1], "bias_regularizer": null, "filters": 32, "dtype": "float32", "kernel_size": [5, 64], "name": "trint_conv2d_67", "activity_regularizer": null, "activation": "relu", "kernel_regularizer": null, "use_bias": true, "strides": [1, 1], "bias_constraint": null, "data_format": "channels_last", "trainable": false, "padding": "valid", "kernel_constraint": null}, "class_name": "Conv2D"}, {"inbound_nodes": [[["trint_input_10", 0, 0, {}]]], "name": "trint_conv2d_68", "config": {"kernel_initializer": {"config": {"seed": null, "distribution": "uniform", "scale": 1.0, "mode": "fan_avg"}, "class_name": "VarianceScaling"}, "bias_initializer": {"config": {}, "class_name": "Zeros"}, "dilation_rate": [1, 1], "bias_regularizer": null, "filters": 32, "dtype": "float32", "kernel_size": [6, 64], "name": "trint_conv2d_68", "activity_regularizer": null, "activation": "relu", "kernel_regularizer": null, "use_bias": true, "strides": [1, 1], "bias_constraint": null, "data_format": "channels_last", "trainable": false, "padding": "valid", "kernel_constraint": null}, "class_name": "Conv2D"}, {"inbound_nodes": [[["trint_input_10", 0, 0, {}]]], "name": "trint_conv2d_69", "config": {"kernel_initializer": {"config": {"seed": null, "distribution": "uniform", "scale": 1.0, "mode": "fan_avg"}, "class_name": "VarianceScaling"}, "bias_initializer": {"config": {}, "class_name": "Zeros"}, "dilation_rate": [1, 1], "bias_regularizer": null, "filters": 32, "dtype": "float32", "kernel_size": [7, 64], "name": "trint_conv2d_69", "activity_regularizer": null, "activation": "relu", "kernel_regularizer": null, "use_bias": true, "strides": [1, 1], "bias_constraint": null, "data_format": "channels_last", "trainable": false, "padding": "valid", "kernel_constraint": null}, "class_name": "Conv2D"}, {"inbound_nodes": [[["trint_input_10", 0, 0, {}]]], "name": "trint_conv2d_70", "config": {"kernel_initializer": {"config": {"seed": null, "distribution": "uniform", "scale": 1.0, "mode": "fan_avg"}, "class_name": "VarianceScaling"}, "bias_initializer": {"config": {}, "class_name": "Zeros"}, "dilation_rate": [1, 1], "bias_regularizer": null, "filters": 32, "dtype": "float32", "kernel_size": [8, 64], "name": "trint_conv2d_70", "activity_regularizer": null, "activation": "relu", "kernel_regularizer": null, "use_bias": true, "strides": [1, 1], "bias_constraint": null, "data_format": "channels_last", "trainable": false, "padding": "valid", "kernel_constraint": null}, "class_name": "Conv2D"}, {"inbound_nodes": [[["simple_concatenate_10", 0, 0, {}]]], "name": "simple_flatten_10", "config": {"name": "simple_flatten_10", "dtype": "float32", "data_format": "channels_last", "trainable": false}, "class_name": "Flatten"}, {"inbound_nodes": [[["DiProDB_concatenate_10", 0, 0, {}]]], "name": "DiProDB_flatten_10", "config": {"name": "DiProDB_flatten_10", "dtype": "float32", "data_format": "channels_last", "trainable": false}, "class_name": "Flatten"}, {"inbound_nodes": [[["trint_conv2d_64", 0, 0, {}]]], "name": "trint_max_pooling2d_64", "config": {"name": "trint_max_pooling2d_64", "data_format": "channels_last", "strides": [3, 1], "dtype": "float32", "pool_size": [3, 1], "padding": "valid", "trainable": false}, "class_name": "MaxPooling2D"}, {"inbound_nodes": [[["trint_conv2d_65", 0, 0, {}]]], "name": "trint_max_pooling2d_65", "config": {"name": "trint_max_pooling2d_65", "data_format": "channels_last", "strides": [3, 1], "dtype": "float32", "pool_size": [3, 1], "padding": "valid", "trainable": false}, "class_name": "MaxPooling2D"}, {"inbound_nodes": [[["trint_conv2d_66", 0, 0, {}]]], "name": "trint_max_pooling2d_66", "config": {"name": "trint_max_pooling2d_66", "data_format": "channels_last", "strides": [2, 1], "dtype": "float32", "pool_size": [2, 1], "padding": "valid", "trainable": false}, "class_name": "MaxPooling2D"}, {"inbound_nodes": [[["trint_conv2d_67", 0, 0, {}]]], "name": "trint_max_pooling2d_67", "config": {"name": "trint_max_pooling2d_67", "data_format": "channels_last", "strides": [2, 1], "dtype": "float32", "pool_size": [2, 1], "padding": "valid", "trainable": false}, "class_name": "MaxPooling2D"}, {"inbound_nodes": [[["trint_conv2d_68", 0, 0, {}]]], "name": "trint_max_pooling2d_68", "config": {"name": "trint_max_pooling2d_68", "data_format": "channels_last", "strides": [2, 1], "dtype": "float32", "pool_size": [2, 1], "padding": "valid", "trainable": false}, "class_name": "MaxPooling2D"}, {"inbound_nodes": [[["trint_conv2d_69", 0, 0, {}]]], "name": "trint_max_pooling2d_69", "config": {"name": "trint_max_pooling2d_69", "data_format": "channels_last", "strides": [2, 1], "dtype": "float32", "pool_size": [2, 1], "padding": "valid", "trainable": false}, "class_name": "MaxPooling2D"}, {"inbound_nodes": [[["trint_conv2d_70", 0, 0, {}]]], "name": "trint_max_pooling2d_70", "config": {"name": "trint_max_pooling2d_70", "data_format": "channels_last", "strides": [2, 1], "dtype": "float32", "pool_size": [2, 1], "padding": "valid", "trainable": false}, "class_name": "MaxPooling2D"}, {"inbound_nodes": [[["simple_flatten_10", 0, 0, {}]]], "name": "simple_dense_28", "config": {"activation": "relu", "bias_initializer": {"config": {}, "class_name": "Zeros"}, "bias_regularizer": null, "dtype": "float32", "name": "simple_dense_28", "activity_regularizer": null, "kernel_initializer": {"config": {"seed": null, "distribution": "uniform", "scale": 1.0, "mode": "fan_avg"}, "class_name": "VarianceScaling"}, "kernel_regularizer": null, "use_bias": true, "bias_constraint": null, "trainable": false, "kernel_constraint": null, "units": 128}, "class_name": "Dense"}, {"inbound_nodes": [[["DiProDB_flatten_10", 0, 0, {}]]], "name": "DiProDB_dense_28", "config": {"activation": "relu", "bias_initializer": {"config": {}, "class_name": "Zeros"}, "bias_regularizer": null, "dtype": "float32", "name": "DiProDB_dense_28", "activity_regularizer": null, "kernel_initializer": {"config": {"seed": null, "distribution": "uniform", "scale": 1.0, "mode": "fan_avg"}, "class_name": "VarianceScaling"}, "kernel_regularizer": null, "use_bias": true, "bias_constraint": null, "trainable": false, "kernel_constraint": null, "units": 128}, "class_name": "Dense"}, {"inbound_nodes": [[["trint_max_pooling2d_64", 0, 0, {}], ["trint_max_pooling2d_65", 0, 0, {}], ["trint_max_pooling2d_66", 0, 0, {}], ["trint_max_pooling2d_67", 0, 0, {}], ["trint_max_pooling2d_68", 0, 0, {}], ["trint_max_pooling2d_69", 0, 0, {}], ["trint_max_pooling2d_70", 0, 0, {}]]], "name": "trint_concatenate_10", "config": {"name": "trint_concatenate_10", "axis": 1, "dtype": "float32", "trainable": false}, "class_name": "Concatenate"}, {"inbound_nodes": [[["simple_dense_28", 0, 0, {}]]], "name": "simple_dropout_19", "config": {"name": "simple_dropout_19", "rate": 0.5, "noise_shape": null, "dtype": "float32", "seed": null, "trainable": false}, "class_name": "Dropout"}, {"inbound_nodes": [[["DiProDB_dense_28", 0, 0, {}]]], "name": "DiProDB_dropout_19", "config": {"name": "DiProDB_dropout_19", "rate": 0.5, "noise_shape": null, "dtype": "float32", "seed": null, "trainable": false}, "class_name": "Dropout"}, {"inbound_nodes": [[["trint_concatenate_10", 0, 0, {}]]], "name": "trint_flatten_10", "config": {"name": "trint_flatten_10", "dtype": "float32", "data_format": "channels_last", "trainable": false}, "class_name": "Flatten"}, {"inbound_nodes": [[["simple_dropout_19", 0, 0, {}]]], "name": "simple_dense_29", "config": {"activation": "relu", "bias_initializer": {"config": {}, "class_name": "Zeros"}, "bias_regularizer": null, "dtype": "float32", "name": "simple_dense_29", "activity_regularizer": null, "kernel_initializer": {"config": {"seed": null, "distribution": "uniform", "scale": 1.0, "mode": "fan_avg"}, "class_name": "VarianceScaling"}, "kernel_regularizer": null, "use_bias": true, "bias_constraint": null, "trainable": false, "kernel_constraint": null, "units": 128}, "class_name": "Dense"}, {"inbound_nodes": [[["DiProDB_dropout_19", 0, 0, {}]]], "name": "DiProDB_dense_29", "config": {"activation": "relu", "bias_initializer": {"config": {}, "class_name": "Zeros"}, "bias_regularizer": null, "dtype": "float32", "name": "DiProDB_dense_29", "activity_regularizer": null, "kernel_initializer": {"config": {"seed": null, "distribution": "uniform", "scale": 1.0, "mode": "fan_avg"}, "class_name": "VarianceScaling"}, "kernel_regularizer": null, "use_bias": true, "bias_constraint": null, "trainable": false, "kernel_constraint": null, "units": 128}, "class_name": "Dense"}, {"inbound_nodes": [[["trint_flatten_10", 0, 0, {}]]], "name": "trint_dense_19", "config": {"activation": "relu", "bias_initializer": {"config": {}, "class_name": "Zeros"}, "bias_regularizer": null, "dtype": "float32", "name": "trint_dense_19", "activity_regularizer": null, "kernel_initializer": {"config": {"seed": null, "distribution": "uniform", "scale": 1.0, "mode": "fan_avg"}, "class_name": "VarianceScaling"}, "kernel_regularizer": null, "use_bias": true, "bias_constraint": null, "trainable": false, "kernel_constraint": null, "units": 128}, "class_name": "Dense"}, {"inbound_nodes": [[["simple_dense_29", 0, 0, {}]]], "name": "simple_dropout_20", "config": {"name": "simple_dropout_20", "rate": 0.5, "noise_shape": null, "dtype": "float32", "seed": null, "trainable": false}, "class_name": "Dropout"}, {"inbound_nodes": [[["DiProDB_dense_29", 0, 0, {}]]], "name": "DiProDB_dropout_20", "config": {"name": "DiProDB_dropout_20", "rate": 0.5, "noise_shape": null, "dtype": "float32", "seed": null, "trainable": false}, "class_name": "Dropout"}, {"inbound_nodes": [[["trint_dense_19", 0, 0, {}]]], "name": "trint_dropout_10", "config": {"name": "trint_dropout_10", "rate": 0.5, "noise_shape": null, "dtype": "float32", "seed": null, "trainable": false}, "class_name": "Dropout"}, {"inbound_nodes": [[["simple_dropout_20", 0, 0, {}]]], "name": "simple_dense_30", "config": {"activation": "sigmoid", "bias_initializer": {"config": {}, "class_name": "Zeros"}, "bias_regularizer": null, "dtype": "float32", "name": "simple_dense_30", "activity_regularizer": null, "kernel_initializer": {"config": {"seed": null, "distribution": "uniform", "scale": 1.0, "mode": "fan_avg"}, "class_name": "VarianceScaling"}, "kernel_regularizer": null, "use_bias": true, "bias_constraint": null, "trainable": false, "kernel_constraint": null, "units": 1}, "class_name": "Dense"}, {"inbound_nodes": [[["DiProDB_dropout_20", 0, 0, {}]]], "name": "DiProDB_dense_30", "config": {"activation": "sigmoid", "bias_initializer": {"config": {}, "class_name": "Zeros"}, "bias_regularizer": null, "dtype": "float32", "name": "DiProDB_dense_30", "activity_regularizer": null, "kernel_initializer": {"config": {"seed": null, "distribution": "uniform", "scale": 1.0, "mode": "fan_avg"}, "class_name": "VarianceScaling"}, "kernel_regularizer": null, "use_bias": true, "bias_constraint": null, "trainable": false, "kernel_constraint": null, "units": 1}, "class_name": "Dense"}, {"inbound_nodes": [[["trint_dropout_10", 0, 0, {}]]], "name": "trint_dense_20", "config": {"activation": "sigmoid", "bias_initializer": {"config": {}, "class_name": "Zeros"}, "bias_regularizer": null, "dtype": "float32", "name": "trint_dense_20", "activity_regularizer": null, "kernel_initializer": {"config": {"seed": null, "distribution": "uniform", "scale": 1.0, "mode": "fan_avg"}, "class_name": "VarianceScaling"}, "kernel_regularizer": null, "use_bias": true, "bias_constraint": null, "trainable": false, "kernel_constraint": null, "units": 1}, "class_name": "Dense"}, {"inbound_nodes": [[["simple_dense_30", 0, 0, {}], ["DiProDB_dense_30", 0, 0, {}], ["trint_dense_20", 0, 0, {}]]], "name": "concatenate_10", "config": {"name": "concatenate_10", "axis": -1, "dtype": "float32", "trainable": true}, "class_name": "Concatenate"}, {"inbound_nodes": [[["concatenate_10", 0, 0, {}]]], "name": "dense_19", "config": {"activation": "relu", "bias_initializer": {"config": {}, "class_name": "Zeros"}, "bias_regularizer": null, "dtype": "float32", "name": "dense_19", "activity_regularizer": null, "kernel_initializer": {"config": {"seed": null, "distribution": "uniform", "scale": 1.0, "mode": "fan_avg"}, "class_name": "VarianceScaling"}, "kernel_regularizer": null, "use_bias": true, "bias_constraint": null, "trainable": true, "kernel_constraint": null, "units": 4}, "class_name": "Dense"}, {"inbound_nodes": [[["dense_19", 0, 0, {}]]], "name": "dense_20", "config": {"activation": "sigmoid", "bias_initializer": {"config": {}, "class_name": "Zeros"}, "bias_regularizer": null, "dtype": "float32", "name": "dense_20", "activity_regularizer": null, "kernel_initializer": {"config": {"seed": null, "distribution": "uniform", "scale": 1.0, "mode": "fan_avg"}, "class_name": "VarianceScaling"}, "kernel_regularizer": null, "use_bias": true, "bias_constraint": null, "trainable": true, "kernel_constraint": null, "units": 1}, "class_name": "Dense"}]}, "class_name": "Model"}