{"keras_version": "2.2.5", "backend": "tensorflow", "config": {"output_layers": [["dense_40", 0, 0]], "name": "model_20", "input_layers": [["simple_input_20", 0, 0], ["DiProDB_input_20", 0, 0], ["trint_input_20", 0, 0]], "layers": [{"inbound_nodes": [], "name": "simple_input_20", "config": {"batch_input_shape": [null, 602, 4, 1], "dtype": "float32", "name": "simple_input_20", "sparse": false}, "class_name": "InputLayer"}, {"inbound_nodes": [[["simple_input_20", 0, 0, {}]]], "name": "simple_conv2d_115", "config": {"activation": "linear", "bias_initializer": {"config": {}, "class_name": "Zeros"}, "dilation_rate": [1, 1], "bias_regularizer": null, "filters": 32, "dtype": "float32", "kernel_size": [2, 4], "name": "simple_conv2d_115", "activity_regularizer": null, "kernel_initializer": {"config": {"seed": null, "distribution": "uniform", "scale": 1.0, "mode": "fan_avg"}, "class_name": "VarianceScaling"}, "kernel_regularizer": null, "use_bias": true, "strides": [1, 1], "bias_constraint": null, "data_format": "channels_last", "trainable": false, "batch_input_shape": [null, 602, 4, 1], "padding": "valid", "kernel_constraint": null}, "class_name": "Conv2D"}, {"inbound_nodes": [[["simple_input_20", 0, 0, {}]]], "name": "simple_conv2d_116", "config": {"activation": "linear", "bias_initializer": {"config": {}, "class_name": "Zeros"}, "dilation_rate": [1, 1], "bias_regularizer": null, "filters": 32, "dtype": "float32", "kernel_size": [3, 4], "name": "simple_conv2d_116", "activity_regularizer": null, "kernel_initializer": {"config": {"seed": null, "distribution": "uniform", "scale": 1.0, "mode": "fan_avg"}, "class_name": "VarianceScaling"}, "kernel_regularizer": null, "use_bias": true, "strides": [1, 1], "bias_constraint": null, "data_format": "channels_last", "trainable": false, "batch_input_shape": [null, 602, 4, 1], "padding": "valid", "kernel_constraint": null}, "class_name": "Conv2D"}, {"inbound_nodes": [[["simple_input_20", 0, 0, {}]]], "name": "simple_conv2d_117", "config": {"activation": "linear", "bias_initializer": {"config": {}, "class_name": "Zeros"}, "dilation_rate": [1, 1], "bias_regularizer": null, "filters": 32, "dtype": "float32", "kernel_size": [4, 4], "name": "simple_conv2d_117", "activity_regularizer": null, "kernel_initializer": {"config": {"seed": null, "distribution": "uniform", "scale": 1.0, "mode": "fan_avg"}, "class_name": "VarianceScaling"}, "kernel_regularizer": null, "use_bias": true, "strides": [1, 1], "bias_constraint": null, "data_format": "channels_last", "trainable": false, "batch_input_shape": [null, 602, 4, 1], "padding": "valid", "kernel_constraint": null}, "class_name": "Conv2D"}, {"inbound_nodes": [[["simple_input_20", 0, 0, {}]]], "name": "simple_conv2d_118", "config": {"activation": "linear", "bias_initializer": {"config": {}, "class_name": "Zeros"}, "dilation_rate": [1, 1], "bias_regularizer": null, "filters": 32, "dtype": "float32", "kernel_size": [5, 4], "name": "simple_conv2d_118", "activity_regularizer": null, "kernel_initializer": {"config": {"seed": null, "distribution": "uniform", "scale": 1.0, "mode": "fan_avg"}, "class_name": "VarianceScaling"}, "kernel_regularizer": null, "use_bias": true, "strides": [1, 1], "bias_constraint": null, "data_format": "channels_last", "trainable": false, "batch_input_shape": [null, 602, 4, 1], "padding": "valid", "kernel_constraint": null}, "class_name": "Conv2D"}, {"inbound_nodes": [[["simple_input_20", 0, 0, {}]]], "name": "simple_conv2d_119", "config": {"activation": "linear", "bias_initializer": {"config": {}, "class_name": "Zeros"}, "dilation_rate": [1, 1], "bias_regularizer": null, "filters": 32, "dtype": "float32", "kernel_size": [6, 4], "name": "simple_conv2d_119", "activity_regularizer": null, "kernel_initializer": {"config": {"seed": null, "distribution": "uniform", "scale": 1.0, "mode": "fan_avg"}, "class_name": "VarianceScaling"}, "kernel_regularizer": null, "use_bias": true, "strides": [1, 1], "bias_constraint": null, "data_format": "channels_last", "trainable": false, "batch_input_shape": [null, 602, 4, 1], "padding": "valid", "kernel_constraint": null}, "class_name": "Conv2D"}, {"inbound_nodes": [[["simple_input_20", 0, 0, {}]]], "name": "simple_conv2d_120", "config": {"activation": "linear", "bias_initializer": {"config": {}, "class_name": "Zeros"}, "dilation_rate": [1, 1], "bias_regularizer": null, "filters": 32, "dtype": "float32", "kernel_size": [7, 4], "name": "simple_conv2d_120", "activity_regularizer": null, "kernel_initializer": {"config": {"seed": null, "distribution": "uniform", "scale": 1.0, "mode": "fan_avg"}, "class_name": "VarianceScaling"}, "kernel_regularizer": null, "use_bias": true, "strides": [1, 1], "bias_constraint": null, "data_format": "channels_last", "trainable": false, "batch_input_shape": [null, 602, 4, 1], "padding": "valid", "kernel_constraint": null}, "class_name": "Conv2D"}, {"inbound_nodes": [], "name": "DiProDB_input_20", "config": {"batch_input_shape": [null, 601, 15, 1], "dtype": "float32", "name": "DiProDB_input_20", "sparse": false}, "class_name": "InputLayer"}, {"inbound_nodes": [[["simple_conv2d_115", 0, 0, {}]]], "name": "simple_max_pooling2d_115", "config": {"name": "simple_max_pooling2d_115", "data_format": "channels_last", "strides": [2, 1], "dtype": "float32", "pool_size": [2, 1], "padding": "valid", "trainable": false}, "class_name": "MaxPooling2D"}, {"inbound_nodes": [[["simple_conv2d_116", 0, 0, {}]]], "name": "simple_max_pooling2d_116", "config": {"name": "simple_max_pooling2d_116", "data_format": "channels_last", "strides": [2, 1], "dtype": "float32", "pool_size": [2, 1], "padding": "valid", "trainable": false}, "class_name": "MaxPooling2D"}, {"inbound_nodes": [[["simple_conv2d_117", 0, 0, {}]]], "name": "simple_max_pooling2d_117", "config": {"name": "simple_max_pooling2d_117", "data_format": "channels_last", "strides": [2, 1], "dtype": "float32", "pool_size": [2, 1], "padding": "valid", "trainable": false}, "class_name": "MaxPooling2D"}, {"inbound_nodes": [[["simple_conv2d_118", 0, 0, {}]]], "name": "simple_max_pooling2d_118", "config": {"name": "simple_max_pooling2d_118", "data_format": "channels_last", "strides": [2, 1], "dtype": "float32", "pool_size": [2, 1], "padding": "valid", "trainable": false}, "class_name": "MaxPooling2D"}, {"inbound_nodes": [[["simple_conv2d_119", 0, 0, {}]]], "name": "simple_max_pooling2d_119", "config": {"name": "simple_max_pooling2d_119", "data_format": "channels_last", "strides": [2, 1], "dtype": "float32", "pool_size": [2, 1], "padding": "valid", "trainable": false}, "class_name": "MaxPooling2D"}, {"inbound_nodes": [[["simple_conv2d_120", 0, 0, {}]]], "name": "simple_max_pooling2d_120", "config": {"name": "simple_max_pooling2d_120", "data_format": "channels_last", "strides": [2, 1], "dtype": "float32", "pool_size": [2, 1], "padding": "valid", "trainable": false}, "class_name": "MaxPooling2D"}, {"inbound_nodes": [[["DiProDB_input_20", 0, 0, {}]]], "name": "DiProDB_conv2d_39", "config": {"kernel_initializer": {"config": {"seed": null, "distribution": "uniform", "scale": 1.0, "mode": "fan_avg"}, "class_name": "VarianceScaling"}, "bias_initializer": {"config": {}, "class_name": "Zeros"}, "dilation_rate": [1, 1], "bias_regularizer": null, "filters": 32, "dtype": "float32", "kernel_size": [3, 15], "name": "DiProDB_conv2d_39", "activity_regularizer": null, "activation": "relu", "kernel_regularizer": null, "use_bias": true, "strides": [1, 1], "bias_constraint": null, "data_format": "channels_last", "trainable": false, "padding": "valid", "kernel_constraint": null}, "class_name": "Conv2D"}, {"inbound_nodes": [[["DiProDB_input_20", 0, 0, {}]]], "name": "DiProDB_conv2d_40", "config": {"kernel_initializer": {"config": {"seed": null, "distribution": "uniform", "scale": 1.0, "mode": "fan_avg"}, "class_name": "VarianceScaling"}, "bias_initializer": {"config": {}, "class_name": "Zeros"}, "dilation_rate": [1, 1], "bias_regularizer": null, "filters": 32, "dtype": "float32", "kernel_size": [4, 15], "name": "DiProDB_conv2d_40", "activity_regularizer": null, "activation": "relu", "kernel_regularizer": null, "use_bias": true, "strides": [1, 1], "bias_constraint": null, "data_format": "channels_last", "trainable": false, "padding": "valid", "kernel_constraint": null}, "class_name": "Conv2D"}, {"inbound_nodes": [], "name": "trint_input_20", "config": {"batch_input_shape": [null, 600, 64, 1], "dtype": "float32", "name": "trint_input_20", "sparse": false}, "class_name": "InputLayer"}, {"inbound_nodes": [[["simple_max_pooling2d_115", 0, 0, {}], ["simple_max_pooling2d_116", 0, 0, {}], ["simple_max_pooling2d_117", 0, 0, {}], ["simple_max_pooling2d_118", 0, 0, {}], ["simple_max_pooling2d_119", 0, 0, {}], ["simple_max_pooling2d_120", 0, 0, {}]]], "name": "simple_concatenate_20", "config": {"name": "simple_concatenate_20", "axis": 1, "dtype": "float32", "trainable": false}, "class_name": "Concatenate"}, {"inbound_nodes": [[["DiProDB_conv2d_39", 0, 0, {}], ["DiProDB_conv2d_40", 0, 0, {}]]], "name": "DiProDB_concatenate_20", "config": {"name": "DiProDB_concatenate_20", "axis": 1, "dtype": "float32", "trainable": false}, "class_name": "Concatenate"}, {"inbound_nodes": [[["trint_input_20", 0, 0, {}]]], "name": "trint_conv2d_134", "config": {"kernel_initializer": {"config": {"seed": null, "distribution": "uniform", "scale": 1.0, "mode": "fan_avg"}, "class_name": "VarianceScaling"}, "bias_initializer": {"config": {}, "class_name": "Zeros"}, "dilation_rate": [1, 1], "bias_regularizer": null, "filters": 32, "dtype": "float32", "kernel_size": [2, 64], "name": "trint_conv2d_134", "activity_regularizer": null, "activation": "relu", "kernel_regularizer": null, "use_bias": true, "strides": [1, 1], "bias_constraint": null, "data_format": "channels_last", "trainable": false, "padding": "valid", "kernel_constraint": null}, "class_name": "Conv2D"}, {"inbound_nodes": [[["trint_input_20", 0, 0, {}]]], "name": "trint_conv2d_135", "config": {"kernel_initializer": {"config": {"seed": null, "distribution": "uniform", "scale": 1.0, "mode": "fan_avg"}, "class_name": "VarianceScaling"}, "bias_initializer": {"config": {}, "class_name": "Zeros"}, "dilation_rate": [1, 1], "bias_regularizer": null, "filters": 32, "dtype": "float32", "kernel_size": [3, 64], "name": "trint_conv2d_135", "activity_regularizer": null, "activation": "relu", "kernel_regularizer": null, "use_bias": true, "strides": [1, 1], "bias_constraint": null, "data_format": "channels_last", "trainable": false, "padding": "valid", "kernel_constraint": null}, "class_name": "Conv2D"}, {"inbound_nodes": [[["trint_input_20", 0, 0, {}]]], "name": "trint_conv2d_136", "config": {"kernel_initializer": {"config": {"seed": null, "distribution": "uniform", "scale": 1.0, "mode": "fan_avg"}, "class_name": "VarianceScaling"}, "bias_initializer": {"config": {}, "class_name": "Zeros"}, "dilation_rate": [1, 1], "bias_regularizer": null, "filters": 32, "dtype": "float32", "kernel_size": [4, 64], "name": "trint_conv2d_136", "activity_regularizer": null, "activation": "relu", "kernel_regularizer": null, "use_bias": true, "strides": [1, 1], "bias_constraint": null, "data_format": "channels_last", "trainable": false, "padding": "valid", "kernel_constraint": null}, "class_name": "Conv2D"}, {"inbound_nodes": [[["trint_input_20", 0, 0, {}]]], "name": "trint_conv2d_137", "config": {"kernel_initializer": {"config": {"seed": null, "distribution": "uniform", "scale": 1.0, "mode": "fan_avg"}, "class_name": "VarianceScaling"}, "bias_initializer": {"config": {}, "class_name": "Zeros"}, "dilation_rate": [1, 1], "bias_regularizer": null, "filters": 32, "dtype": "float32", "kernel_size": [5, 64], "name": "trint_conv2d_137", "activity_regularizer": null, "activation": "relu", "kernel_regularizer": null, "use_bias": true, "strides": [1, 1], "bias_constraint": null, "data_format": "channels_last", "trainable": false, "padding": "valid", "kernel_constraint": null}, "class_name": "Conv2D"}, {"inbound_nodes": [[["trint_input_20", 0, 0, {}]]], "name": "trint_conv2d_138", "config": {"kernel_initializer": {"config": {"seed": null, "distribution": "uniform", "scale": 1.0, "mode": "fan_avg"}, "class_name": "VarianceScaling"}, "bias_initializer": {"config": {}, "class_name": "Zeros"}, "dilation_rate": [1, 1], "bias_regularizer": null, "filters": 32, "dtype": "float32", "kernel_size": [6, 64], "name": "trint_conv2d_138", "activity_regularizer": null, "activation": "relu", "kernel_regularizer": null, "use_bias": true, "strides": [1, 1], "bias_constraint": null, "data_format": "channels_last", "trainable": false, "padding": "valid", "kernel_constraint": null}, "class_name": "Conv2D"}, {"inbound_nodes": [[["trint_input_20", 0, 0, {}]]], "name": "trint_conv2d_139", "config": {"kernel_initializer": {"config": {"seed": null, "distribution": "uniform", "scale": 1.0, "mode": "fan_avg"}, "class_name": "VarianceScaling"}, "bias_initializer": {"config": {}, "class_name": "Zeros"}, "dilation_rate": [1, 1], "bias_regularizer": null, "filters": 32, "dtype": "float32", "kernel_size": [7, 64], "name": "trint_conv2d_139", "activity_regularizer": null, "activation": "relu", "kernel_regularizer": null, "use_bias": true, "strides": [1, 1], "bias_constraint": null, "data_format": "channels_last", "trainable": false, "padding": "valid", "kernel_constraint": null}, "class_name": "Conv2D"}, {"inbound_nodes": [[["trint_input_20", 0, 0, {}]]], "name": "trint_conv2d_140", "config": {"kernel_initializer": {"config": {"seed": null, "distribution": "uniform", "scale": 1.0, "mode": "fan_avg"}, "class_name": "VarianceScaling"}, "bias_initializer": {"config": {}, "class_name": "Zeros"}, "dilation_rate": [1, 1], "bias_regularizer": null, "filters": 32, "dtype": "float32", "kernel_size": [8, 64], "name": "trint_conv2d_140", "activity_regularizer": null, "activation": "relu", "kernel_regularizer": null, "use_bias": true, "strides": [1, 1], "bias_constraint": null, "data_format": "channels_last", "trainable": false, "padding": "valid", "kernel_constraint": null}, "class_name": "Conv2D"}, {"inbound_nodes": [[["simple_concatenate_20", 0, 0, {}]]], "name": "simple_flatten_20", "config": {"name": "simple_flatten_20", "dtype": "float32", "data_format": "channels_last", "trainable": false}, "class_name": "Flatten"}, {"inbound_nodes": [[["DiProDB_concatenate_20", 0, 0, {}]]], "name": "DiProDB_flatten_20", "config": {"name": "DiProDB_flatten_20", "dtype": "float32", "data_format": "channels_last", "trainable": false}, "class_name": "Flatten"}, {"inbound_nodes": [[["trint_conv2d_134", 0, 0, {}]]], "name": "trint_max_pooling2d_134", "config": {"name": "trint_max_pooling2d_134", "data_format": "channels_last", "strides": [3, 1], "dtype": "float32", "pool_size": [3, 1], "padding": "valid", "trainable": false}, "class_name": "MaxPooling2D"}, {"inbound_nodes": [[["trint_conv2d_135", 0, 0, {}]]], "name": "trint_max_pooling2d_135", "config": {"name": "trint_max_pooling2d_135", "data_format": "channels_last", "strides": [3, 1], "dtype": "float32", "pool_size": [3, 1], "padding": "valid", "trainable": false}, "class_name": "MaxPooling2D"}, {"inbound_nodes": [[["trint_conv2d_136", 0, 0, {}]]], "name": "trint_max_pooling2d_136", "config": {"name": "trint_max_pooling2d_136", "data_format": "channels_last", "strides": [2, 1], "dtype": "float32", "pool_size": [2, 1], "padding": "valid", "trainable": false}, "class_name": "MaxPooling2D"}, {"inbound_nodes": [[["trint_conv2d_137", 0, 0, {}]]], "name": "trint_max_pooling2d_137", "config": {"name": "trint_max_pooling2d_137", "data_format": "channels_last", "strides": [2, 1], "dtype": "float32", "pool_size": [2, 1], "padding": "valid", "trainable": false}, "class_name": "MaxPooling2D"}, {"inbound_nodes": [[["trint_conv2d_138", 0, 0, {}]]], "name": "trint_max_pooling2d_138", "config": {"name": "trint_max_pooling2d_138", "data_format": "channels_last", "strides": [2, 1], "dtype": "float32", "pool_size": [2, 1], "padding": "valid", "trainable": false}, "class_name": "MaxPooling2D"}, {"inbound_nodes": [[["trint_conv2d_139", 0, 0, {}]]], "name": "trint_max_pooling2d_139", "config": {"name": "trint_max_pooling2d_139", "data_format": "channels_last", "strides": [2, 1], "dtype": "float32", "pool_size": [2, 1], "padding": "valid", "trainable": false}, "class_name": "MaxPooling2D"}, {"inbound_nodes": [[["trint_conv2d_140", 0, 0, {}]]], "name": "trint_max_pooling2d_140", "config": {"name": "trint_max_pooling2d_140", "data_format": "channels_last", "strides": [2, 1], "dtype": "float32", "pool_size": [2, 1], "padding": "valid", "trainable": false}, "class_name": "MaxPooling2D"}, {"inbound_nodes": [[["simple_flatten_20", 0, 0, {}]]], "name": "simple_dense_58", "config": {"activation": "relu", "bias_initializer": {"config": {}, "class_name": "Zeros"}, "bias_regularizer": null, "dtype": "float32", "name": "simple_dense_58", "activity_regularizer": null, "kernel_initializer": {"config": {"seed": null, "distribution": "uniform", "scale": 1.0, "mode": "fan_avg"}, "class_name": "VarianceScaling"}, "kernel_regularizer": null, "use_bias": true, "bias_constraint": null, "trainable": false, "kernel_constraint": null, "units": 128}, "class_name": "Dense"}, {"inbound_nodes": [[["DiProDB_flatten_20", 0, 0, {}]]], "name": "DiProDB_dense_58", "config": {"activation": "relu", "bias_initializer": {"config": {}, "class_name": "Zeros"}, "bias_regularizer": null, "dtype": "float32", "name": "DiProDB_dense_58", "activity_regularizer": null, "kernel_initializer": {"config": {"seed": null, "distribution": "uniform", "scale": 1.0, "mode": "fan_avg"}, "class_name": "VarianceScaling"}, "kernel_regularizer": null, "use_bias": true, "bias_constraint": null, "trainable": false, "kernel_constraint": null, "units": 128}, "class_name": "Dense"}, {"inbound_nodes": [[["trint_max_pooling2d_134", 0, 0, {}], ["trint_max_pooling2d_135", 0, 0, {}], ["trint_max_pooling2d_136", 0, 0, {}], ["trint_max_pooling2d_137", 0, 0, {}], ["trint_max_pooling2d_138", 0, 0, {}], ["trint_max_pooling2d_139", 0, 0, {}], ["trint_max_pooling2d_140", 0, 0, {}]]], "name": "trint_concatenate_20", "config": {"name": "trint_concatenate_20", "axis": 1, "dtype": "float32", "trainable": false}, "class_name": "Concatenate"}, {"inbound_nodes": [[["simple_dense_58", 0, 0, {}]]], "name": "simple_dropout_39", "config": {"name": "simple_dropout_39", "rate": 0.5, "noise_shape": null, "dtype": "float32", "seed": null, "trainable": false}, "class_name": "Dropout"}, {"inbound_nodes": [[["DiProDB_dense_58", 0, 0, {}]]], "name": "DiProDB_dropout_39", "config": {"name": "DiProDB_dropout_39", "rate": 0.5, "noise_shape": null, "dtype": "float32", "seed": null, "trainable": false}, "class_name": "Dropout"}, {"inbound_nodes": [[["trint_concatenate_20", 0, 0, {}]]], "name": "trint_flatten_20", "config": {"name": "trint_flatten_20", "dtype": "float32", "data_format": "channels_last", "trainable": false}, "class_name": "Flatten"}, {"inbound_nodes": [[["simple_dropout_39", 0, 0, {}]]], "name": "simple_dense_59", "config": {"activation": "relu", "bias_initializer": {"config": {}, "class_name": "Zeros"}, "bias_regularizer": null, "dtype": "float32", "name": "simple_dense_59", "activity_regularizer": null, "kernel_initializer": {"config": {"seed": null, "distribution": "uniform", "scale": 1.0, "mode": "fan_avg"}, "class_name": "VarianceScaling"}, "kernel_regularizer": null, "use_bias": true, "bias_constraint": null, "trainable": false, "kernel_constraint": null, "units": 128}, "class_name": "Dense"}, {"inbound_nodes": [[["DiProDB_dropout_39", 0, 0, {}]]], "name": "DiProDB_dense_59", "config": {"activation": "relu", "bias_initializer": {"config": {}, "class_name": "Zeros"}, "bias_regularizer": null, "dtype": "float32", "name": "DiProDB_dense_59", "activity_regularizer": null, "kernel_initializer": {"config": {"seed": null, "distribution": "uniform", "scale": 1.0, "mode": "fan_avg"}, "class_name": "VarianceScaling"}, "kernel_regularizer": null, "use_bias": true, "bias_constraint": null, "trainable": false, "kernel_constraint": null, "units": 128}, "class_name": "Dense"}, {"inbound_nodes": [[["trint_flatten_20", 0, 0, {}]]], "name": "trint_dense_39", "config": {"activation": "relu", "bias_initializer": {"config": {}, "class_name": "Zeros"}, "bias_regularizer": null, "dtype": "float32", "name": "trint_dense_39", "activity_regularizer": null, "kernel_initializer": {"config": {"seed": null, "distribution": "uniform", "scale": 1.0, "mode": "fan_avg"}, "class_name": "VarianceScaling"}, "kernel_regularizer": null, "use_bias": true, "bias_constraint": null, "trainable": false, "kernel_constraint": null, "units": 128}, "class_name": "Dense"}, {"inbound_nodes": [[["simple_dense_59", 0, 0, {}]]], "name": "simple_dropout_40", "config": {"name": "simple_dropout_40", "rate": 0.5, "noise_shape": null, "dtype": "float32", "seed": null, "trainable": false}, "class_name": "Dropout"}, {"inbound_nodes": [[["DiProDB_dense_59", 0, 0, {}]]], "name": "DiProDB_dropout_40", "config": {"name": "DiProDB_dropout_40", "rate": 0.5, "noise_shape": null, "dtype": "float32", "seed": null, "trainable": false}, "class_name": "Dropout"}, {"inbound_nodes": [[["trint_dense_39", 0, 0, {}]]], "name": "trint_dropout_20", "config": {"name": "trint_dropout_20", "rate": 0.5, "noise_shape": null, "dtype": "float32", "seed": null, "trainable": false}, "class_name": "Dropout"}, {"inbound_nodes": [[["simple_dropout_40", 0, 0, {}]]], "name": "simple_dense_60", "config": {"activation": "sigmoid", "bias_initializer": {"config": {}, "class_name": "Zeros"}, "bias_regularizer": null, "dtype": "float32", "name": "simple_dense_60", "activity_regularizer": null, "kernel_initializer": {"config": {"seed": null, "distribution": "uniform", "scale": 1.0, "mode": "fan_avg"}, "class_name": "VarianceScaling"}, "kernel_regularizer": null, "use_bias": true, "bias_constraint": null, "trainable": false, "kernel_constraint": null, "units": 1}, "class_name": "Dense"}, {"inbound_nodes": [[["DiProDB_dropout_40", 0, 0, {}]]], "name": "DiProDB_dense_60", "config": {"activation": "sigmoid", "bias_initializer": {"config": {}, "class_name": "Zeros"}, "bias_regularizer": null, "dtype": "float32", "name": "DiProDB_dense_60", "activity_regularizer": null, "kernel_initializer": {"config": {"seed": null, "distribution": "uniform", "scale": 1.0, "mode": "fan_avg"}, "class_name": "VarianceScaling"}, "kernel_regularizer": null, "use_bias": true, "bias_constraint": null, "trainable": false, "kernel_constraint": null, "units": 1}, "class_name": "Dense"}, {"inbound_nodes": [[["trint_dropout_20", 0, 0, {}]]], "name": "trint_dense_40", "config": {"activation": "sigmoid", "bias_initializer": {"config": {}, "class_name": "Zeros"}, "bias_regularizer": null, "dtype": "float32", "name": "trint_dense_40", "activity_regularizer": null, "kernel_initializer": {"config": {"seed": null, "distribution": "uniform", "scale": 1.0, "mode": "fan_avg"}, "class_name": "VarianceScaling"}, "kernel_regularizer": null, "use_bias": true, "bias_constraint": null, "trainable": false, "kernel_constraint": null, "units": 1}, "class_name": "Dense"}, {"inbound_nodes": [[["simple_dense_60", 0, 0, {}], ["DiProDB_dense_60", 0, 0, {}], ["trint_dense_40", 0, 0, {}]]], "name": "concatenate_20", "config": {"name": "concatenate_20", "axis": -1, "dtype": "float32", "trainable": true}, "class_name": "Concatenate"}, {"inbound_nodes": [[["concatenate_20", 0, 0, {}]]], "name": "dense_39", "config": {"activation": "relu", "bias_initializer": {"config": {}, "class_name": "Zeros"}, "bias_regularizer": null, "dtype": "float32", "name": "dense_39", "activity_regularizer": null, "kernel_initializer": {"config": {"seed": null, "distribution": "uniform", "scale": 1.0, "mode": "fan_avg"}, "class_name": "VarianceScaling"}, "kernel_regularizer": null, "use_bias": true, "bias_constraint": null, "trainable": true, "kernel_constraint": null, "units": 4}, "class_name": "Dense"}, {"inbound_nodes": [[["dense_39", 0, 0, {}]]], "name": "dense_40", "config": {"activation": "sigmoid", "bias_initializer": {"config": {}, "class_name": "Zeros"}, "bias_regularizer": null, "dtype": "float32", "name": "dense_40", "activity_regularizer": null, "kernel_initializer": {"config": {"seed": null, "distribution": "uniform", "scale": 1.0, "mode": "fan_avg"}, "class_name": "VarianceScaling"}, "kernel_regularizer": null, "use_bias": true, "bias_constraint": null, "trainable": true, "kernel_constraint": null, "units": 1}, "class_name": "Dense"}]}, "class_name": "Model"}